double_dqn_model.pth (torch_old, 28423 bytes, 6 tensors)

fc1.weight f4 [64, 37]
0	0x3dfd867c	0.123791665
1	0x3d3e233e	0.04642033
2	0xbe88679e	-0.26641554
3	0xbe487680	-0.19576454
4	0xbe94d7b6	-0.29070824
5	0xbe4487e5	-0.19192465
6	0x3c0a390e	0.008436454
7	0x3e5e0749	0.21682467
8	0x3dcafe97	0.099118404
9	0xbe0bc8ce	-0.1365082
10	0xbe173c0c	-0.14769
11	0xbe18631e	-0.1488156
12	0xbd17e7af	-0.037086185
13	0xbd67dfd0	-0.05660993
14	0x3d90f156	0.07077281
15	0xbe85fcc6	-0.26169413
16	0x3d8a9a0f	0.067676656
17	0x3e879b24	0.2648555
18	0xbd60109c	-0.05470334
19	0xbe7b9800	-0.24569702
20	0x3d0447d3	0.03229506
21	0x3e4323fa	0.19056693
22	0xbdf5c40b	-0.12000283
23	0x3e0839aa	0.13303247
24	0x3e81ae72	0.25328404
25	0xbd926f0a	-0.07150085
26	0x3e59443b	0.21217434
27	0xbe1605e4	-0.14650685
28	0xbe760f64	-0.24029309
29	0xbe929f0b	-0.28636965
30	0x3c28e39a	0.010308171
31	0x3dcc734c	0.09982929
32	0xbcb7e6b6	-0.022448879
33	0xbe686fb6	-0.22698864
34	0xbe1c1c91	-0.15245272
35	0xbdd8460e	-0.10560237
36	0xbcee5038	-0.029090986
37	0x3ea6b7c3	0.32562074
38	0xbd9349b0	-0.07191789
39	0x3c1c00e9	0.009521701
40	0x3d2f95ef	0.042867597
41	0xbe2d4664	-0.16921383
42	0xbe22f9a2	-0.1591554
43	0xbca933e7	-0.020654632
44	0x3d147a42	0.036249407
45	0xbdf55011	-0.11978162
46	0x3e4b648a	0.19862571
47	0x3d7f26ff	0.06229305
48	0xbc800696	-0.01562814
49	0x3d00d3ba	0.03145192
50	0x3da12053	0.078674935
51	0x3dc7d92e	0.097582206
52	0xbc0c8954	-0.008577663
53	0x3dbb9a46	0.09160285
54	0x3e49aae0	0.1969409
55	0xbe5c0877	-0.21487604
56	0x3d185c87	0.037197616
57	0x3d890191	0.06689752
58	0xbe15416e	-0.1457574
59	0xbe14b9d6	-0.14524016
60	0xbe505a86	-0.20347032
61	0xbe32fde3	-0.17479663
62	0x3d799b0c	0.06093888
63	0xbd8b6d77	-0.06807988
64	0x3d58cd5a	0.052930214
65	0xbda83ba3	-0.082145
66	0xbec7dbb3	-0.39034805
67	0x3e2fe092	0.1717551
68	0x3e13815a	0.14404812
69	0xbd6857f7	-0.056724515
70	0xbe0f1c63	-0.13975672
71	0xbe8a0952	-0.26960236
72	0x3d3a7a7f	0.045526978
73	0x3cab5148	0.020912781
74	0x3e49e584	0.1971646
75	0x3d6a4413	0.057193827
76	0x3dc1381d	0.09434531
77	0x3bdfcdd5	0.006829957
78	0xbe0fa989	-0.14029516
79	0xbea6c3f2	-0.3257137
80	0x3d47bb85	0.048762817
81	0x3e60131f	0.21882294
82	0x3c1067f9	0.0088138515
83	0xbe1ca688	-0.15297902
84	0x3e81af6c	0.2532915
85	0xbe374d65	-0.17900617
86	0xbd7530e3	-0.059861075
87	0xbe1ed979	-0.15512647
88	0x3c343952	0.010999994
89	0xbeac43bb	-0.33645424
90	0x3e341ae0	0.17588377
91	0x3e360a02	0.17777255
92	0x3d936aae	0.07198082
93	0xbd601fb8	-0.05471775
94	0xbed40c58	-0.41415668
95	0xbb5e2601	-0.0033897164
96	0x3dbad635	0.09122888
97	0x3df14d73	0.117823504
98	0x3dbad568	0.09122735
99	0xbe93b360	-0.2884779
100	0x3e763fbe	0.24047753
101	0x3e239471	0.15974595
102	0xbd2597aa	-0.04042784
103	0xbd476127	-0.048676636
104	0xbefe6570	-0.49686766
105	0x3e24d0f9	0.16095342
106	0xbdda7190	-0.106661916
107	0xbe104909	-0.1409036
108	0x3d86156c	0.06547055
109	0x3e284b0e	0.16434881
110	0xbc3ba63c	-0.011453208
111	0x3b2b82ca	0.0026170486
112	0x3c761cba	0.015021497
113	0x3e7d497a	0.2473506
114	0x3d97cb4e	0.07411824
115	0xbd781a5b	-0.06057201
116	0xbe552338	-0.20814216
117	0x3e367768	0.17818987
118	0x3ec57c0b	0.385712
119	0x3dfb9771	0.122847445
120	0x3f49ab3b	0.787769
121	0xbd6bf3ce	-0.057605557
122	0xbc93ca02	-0.01804066
123	0x3dc4416c	0.09582791
124	0xbdb4417c	-0.08801553
125	0xbb9c5cf2	-0.004771822
126	0xbd8b0207	-0.06787496
127	0x3cf0aefe	0.029380318
128	0xbc56fbb9	-0.013121539
129	0xbe0ca506	-0.13734826
130	0xbdb117ad	-0.08647094
131	0x3d08bb4a	0.033381738
132	0x3c127105	0.008938079
133	0xbcd592cd	-0.026070977
134	0x3e1e798e	0.15476057
135	0xbcb2d98d	-0.021832252
136	0x3da8fe74	0.08251658
137	0xbce3de6b	-0.027816018
138	0x3d5b3d6c	0.053525373
139	0x3b889581	0.004168213
140	0x3da37921	0.07982088
141	0x3e32f213	0.17475156
142	0x3cc372c6	0.02385844
143	0x3d32ef0c	0.043685004
144	0xbe23538b	-0.15949838
145	0xbea81224	-0.3282634
146	0x3d147f46	0.03625419
147	0x3d336ca9	0.0438048
148	0xbd91d078	-0.071198404
149	0xbe5db127	-0.2164961
150	0xbe0ba261	-0.13636161
151	0xbdf97e93	-0.12182345
152	0x3dc046d9	0.09388513
153	0x3de5d143	0.11221554
154	0xbd800264	-0.06250456
155	0xbd9e12ce	-0.077184305
156	0xbd74da37	-0.05977842
157	0xbebc445c	-0.36770904
158	0x3bf89927	0.0075866166
159	0xbe19ce98	-0.15020216
160	0xbda43751	-0.08018363
161	0xbd827ccd	-0.0637146
162	0xbdddfc49	-0.10839135
163	0xbe2b05dd	-0.16701455
164	0xbdf463ac	-0.119330734
165	0xbd261d33	-0.04055519
166	0xbb072294	-0.0020619975
167	0x3e9bf694	0.30461562
168	0x3d1a08b4	0.037605956
169	0xbe30e11f	-0.17273377
170	0xbdc9b3f2	-0.09848775
171	0x3dc2e07c	0.09515473
172	0x3e9c4f09	0.3052905
173	0x3cfcbcde	0.030851778
174	0xbd8c9b79	-0.068655916
175	0xbdc10566	-0.09424858
176	0x3d1f1a84	0.038843647
177	0x3e47b963	0.19504313
178	0x3e7bf2df	0.24604367
179	0xbe1a789c	-0.15085071
180	0xbe826f0f	-0.25475356
181	0x3c3a9f0c	0.011390459
182	0x3f1fef6d	0.6247471
183	0xbd5ffbe7	-0.054683592
184	0x3cccfd54	0.02502314
185	0x3e2a1876	0.16610894
186	0xbde74cec	-0.112939686
187	0x3ce698a0	0.02814895
188	0xbdf21128	-0.118196785
189	0x3db22e68	0.087002575
190	0x3ec2bc56	0.38034314
191	0xbeb1826e	-0.34669822
192	0xbeb68aab	-0.3565267
193	0xbd943ad4	-0.07237783
194	0xbf7c941b	-0.9866349
195	0xbdb89f21	-0.090147264
196	0xbd66beac	-0.056334183
197	0x3d34bef3	0.044127416
198	0x3d80a462	0.062813535
199	0x3d53266f	0.051550325
200	0x3d4ffcd0	0.05077821
201	0x3dc4af83	0.09603789
202	0xbde2b1d5	-0.11069075
203	0xbd6beaf1	-0.057597104
204	0xbd73f767	-0.059562113
205	0x3de72cbe	0.11287831
206	0x3d5afa27	0.05346122
207	0x3dcf53c9	0.101234026
208	0x3e0de5e4	0.13857228
209	0x3e9277f7	0.2860715
210	0xbd092a21	-0.033487443
211	0x3d9a9b08	0.07549101
212	0x3d2a15fb	0.04152487
213	0x3e1db68a	0.15401664
214	0x3e6c0c0d	0.23051472
215	0x3cdb5201	0.026772501
216	0xbda1ce7b	-0.07900711
217	0xbcc85d91	-0.024458678
218	0x3e4b298a	0.19840065
219	0x3cc5f168	0.024162963
220	0xbd728e1b	-0.059217554
221	0x3db5dcbd	0.08879993
222	0xbe183505	-0.14863975
223	0xbdc90229	-0.09814865
224	0x3dad6944	0.084673434
225	0x3e42a33b	0.1900758
226	0xbde72b3a	-0.11287542
227	0x3e853c09	0.26022366
228	0xbdf2a6f9	-0.11848254
229	0xbdd4b887	-0.10386758
230	0xbe42904d	-0.19000359
231	0x3e5428cd	0.2071869
232	0x3db629b0	0.0889467
233	0x3e8799aa	0.26484424
234	0xbd90aad5	-0.070638336
235	0xbe527286	-0.205515
236	0xbd82b3ce	-0.06381951
237	0xbd50de68	-0.050993353
238	0xbe37910c	-0.17926425
239	0x3de59787	0.11210542
240	0x3d228cc3	0.039685022
241	0x3e42fac9	0.1904098
242	0xbebae063	-0.36499318
243	0x3e220966	0.15823898
244	0x3e10124f	0.14069484
245	0xbe865473	-0.26236305
246	0xbeb2dff8	-0.349365
247	0xbe1445c1	-0.14479734
248	0x3cab2657	0.020892305
249	0xbd109027	-0.035293724
250	0xbd3dcf5e	-0.04634034
251	0x3d494fa1	0.049148206
252	0xbd5ad5ac	-0.05342643
253	0x3b82fc44	0.0039973576
254	0xbde6ed90	-0.1127578
255	0x3e584ff7	0.21124254

fc1.bias f4 [64]
0	0x3dddaba4	0.108237535
1	0xbb308147	-0.0026932524
2	0xbdd5adc9	-0.104335375
3	0xbd16c66f	-0.036810335
4	0x3de08989	0.10963733
5	0x3bc0e4d9	0.0058866558
6	0xbd9638d8	-0.07335061
7	0x3d8ab051	0.06771911
8	0x3d03ef1d	0.032210458
9	0xbe5e0838	-0.21682823
10	0x3df1190b	0.11772355
11	0x3e182301	0.14857103
12	0x3e04dad8	0.12974107
13	0x3dbc4322	0.09192492
14	0xbd0fc6e7	-0.035101797
15	0xbd844bf2	-0.06459798
16	0x3dda1388	0.106482565
17	0xbb9f4e72	-0.0048616463
18	0x3b83aca5	0.0040183836
19	0xbe46cad1	-0.19413306
20	0xbe184df8	-0.14873493
21	0x3dc721a9	0.09723217
22	0x3cce2bde	0.025167402
23	0xbd7b5aa8	-0.061365753
24	0xbdf9dbc6	-0.122001216
25	0x3e0637cc	0.13107222
26	0xbd1489c4	-0.036264196
27	0xbdf9563c	-0.12174651
28	0x3e1acdf2	0.15117624
29	0x3e06a9c2	0.13150695
30	0xbd18a809	-0.037269626
31	0xbe2ad157	-0.1668142
32	0x3df6566e	0.12028204
33	0x3d015137	0.031571593
34	0xbdc79208	-0.0974465
35	0x3d87087c	0.06593415
36	0xbd405071	-0.046951715
37	0x3d306123	0.043061387
38	0x3c18bc74	0.0093222745
39	0xbdfe5257	-0.12418049
40	0xbe15500e	-0.1458132
41	0xbc476362	-0.012169691
42	0xbe04df6a	-0.1297585
43	0x3e21e25f	0.1580901
44	0xbd31408d	-0.04327445
45	0xbd82fde4	-0.06396082
46	0x3d988f11	0.07449163
47	0xbdee99c9	-0.11650426
48	0xbda14bde	-0.07875799
49	0x3cd2e796	0.025745194
50	0xbe0e967f	-0.13924597
51	0x3c3a7163	0.011379573
52	0xbc9748b9	-0.018467294
53	0xbc181d55	-0.009284337
54	0xbe12fbac	-0.14353818
55	0xbb69f1f9	-0.0035697205
56	0x3dc478c0	0.09593344
57	0xbdde5ee5	-0.108579434
58	0xbdde2f1a	-0.10848828
59	0xbdd981c5	-0.10620455
60	0x3d481ef9	0.048857663
61	0x3d679e67	0.05654755
62	0xbc7cecd9	-0.015437328
63	0x3ddd956e	0.10819517

fc2.weight f4 [64, 64]
0	0x3e0a1f22	0.13488439
1	0xbd90a245	-0.070622005
2	0x3e09434a	0.13404575
3	0x3e8dec2e	0.27719253
4	0x3c2aa222	0.010414632
5	0xbe649926	-0.22324046
6	0xbe513164	-0.20428997
7	0xbd499cab	-0.049221676
8	0xbdb22baa	-0.086997345
9	0x3d79ebfb	0.061016064
10	0xbe5833a0	-0.21113443
11	0xbddb439a	-0.10706253
12	0xbe4d025a	-0.20020428
13	0x3d8478fd	0.06468389
14	0x3d9702ba	0.07373567
15	0x3d6ce822	0.057838567
16	0x3c61071e	0.013734607
17	0xbd49f155	-0.049302418
18	0x3ba3e000	0.005001068
19	0x3d8b04b4	0.067880064
20	0xbd13fb87	-0.036128547
21	0x3e44ca41	0.19217779
22	0xbe8fad22	-0.28061777
23	0x3d44c3c5	0.048038263
24	0xbdcd54c9	-0.10025937
25	0xbd210200	-0.039308548
26	0x3e7ac5a3	0.24489455
27	0x3b942b4c	0.004521763
28	0xbe27b51e	-0.16377684
29	0x3e25b33f	0.16181658
30	0xbe99ff41	-0.30077556
31	0xbe62059e	-0.22072455
32	0x3df8e5d8	0.12153214
33	0x3dd40eff	0.10354423
34	0x3d5eb47c	0.054371342
35	0xbc377fbf	-0.011199891
36	0xbd159046	-0.036514543
37	0x3dba52df	0.09097838
38	0xbdd03b9e	-0.10167621
39	0xbdafed5d	-0.08590195
40	0xbdb57da3	-0.08861854
41	0xbd22a936	-0.039712153
42	0x3d7ad8e9	0.061242018
43	0xbe447133	-0.19183807
44	0x3d8aa477	0.067696504
45	0xbd7d536b	-0.06184713
46	0xbd98ae82	-0.0745516
47	0xbddea9e9	-0.108722515
48	0xbe7a056c	-0.24416131
49	0x3ccfe22f	0.025376407
50	0xbe421d3b	-0.18956463
51	0x3df8ade4	0.12142542
52	0xbe4ba670	-0.1988771
53	0xbe866c33	-0.26254424
54	0x3dfdb701	0.12388421
55	0xbde07b55	-0.10961024
56	0x3dd48104	0.1037617
57	0xba894b30	-0.0010474678
58	0xbe67a47c	-0.2262134
59	0x3dc4ee90	0.09615815
60	0xbeab02f9	-0.33400705
61	0xbe352d7f	-0.17693137
62	0xbe9c8bb5	-0.30575338
63	0x3db84d74	0.08999148
64	0x3e2ffa95	0.17185433
65	0x3db9fb28	0.090811074
66	0xbdbc04c1	-0.09180594
67	0xbd6e80ef	-0.05822843
68	0x3da94c01	0.0826645
69	0x3e04915d	0.12946077
70	0xbe4ee045	-0.2020274
71	0x3e8a07a2	0.26958948
72	0x3bb94116	0.005653511
73	0xbe0c534b	-0.13703649
74	0xbbfdf222	-0.0077498117
75	0x3e2e1fb3	0.1700428
76	0xbdf76807	-0.120803885
77	0x3de13ec8	0.10998303
78	0xbd664c5b	-0.056225162
79	0x3db6824e	0.089115724
80	0xbd2e38e1	-0.042534713
81	0x3cbe87e7	0.023258163
82	0xbe962b7a	-0.29330045
83	0xbe301f87	-0.17199527
84	0x3c8cb03e	0.017173883
85	0xbe258910	-0.16165566
86	0x3d90e061	0.07074047
87	0xbe5aa328	-0.21351302
88	0xba864bec	-0.0010246015
89	0x3dab56e6	0.08366184
90	0xbcd58a78	-0.026067004
91	0xbbb8ca19	-0.0056393263
92	0x3db2c462	0.08728863
93	0xbcb6d4dd	-0.022318298
94	0xbc60418d	-0.0136875035
95	0xbe3b908e	-0.18316862
96	0xbc8cef67	-0.017204
97	0x3e1fe23b	0.15613644
98	0x3e2e400b	0.17016618
99	0x3dcca90d	0.099931814
100	0xbd3cf702	-0.046134003
101	0x3dfb58ff	0.12272834
102	0x3ecc0b12	0.39852196
103	0xbe1163ab	-0.14198177
104	0x3d3c8209	0.04602245
105	0xbe56437a	-0.20924178
106	0xbccab1c6	-0.024742972
107	0xbd2cc926	-0.042184018
108	0xbd7f1291	-0.062273566
109	0x3c35cba8	0.011095919
110	0xbdcabc45	-0.09899191
111	0xbc8d1235	-0.017220596
112	0xbd88ff8e	-0.06689368
113	0xbe4e695a	-0.20157376
114	0x3c3dcd26	0.011584556
115	0x3e0809aa	0.13284937
116	0xbdde16cd	-0.10844193
117	0xbdcebd71	-0.10094727
118	0xbd93a358	-0.0720889
119	0x3d9e6b1c	0.07735273
120	0xbda432c5	-0.08017496
121	0x3da56b0f	0.080770604
122	0x3e197f9d	0.14990087
123	0xbcbb1aac	-0.022839867
124	0xbdb128b7	-0.08650344
125	0xbe08e88f	-0.13369964
126	0xba76a3ba	-0.00094085524
127	0xbd9ff33b	-0.078100644
128	0xbd3731ce	-0.04472523
129	0xbe04de7e	-0.12975499
130	0x3e3f77e1	0.18698074
131	0xbe3b49f9	-0.18289937
132	0x3d65a655	0.05606683
133	0x3e04392b	0.12912433
134	0x3c1df5ed	0.009641153
135	0xbe110109	-0.14160551
136	0x3e307992	0.17233875
137	0xbe3f33d6	-0.18672118
138	0xbd821d40	-0.06353235
139	0x3e385488	0.18000996
140	0x3da42ab7	0.0801596
141	0x3d9fdfe1	0.078063734
142	0x3acc2ee6	0.0015577942
143	0x3d3e6e74	0.046492055
144	0xbd736356	-0.059420906
145	0x3e0eb630	0.13936687
146	0x3cbb06c7	0.02283038
147	0xbdc42c59	-0.09578771
148	0xbe04dfd4	-0.12976009
149	0xbd03284e	-0.03202086
150	0x3e3e2b9b	0.18571322
151	0xbe3f1480	-0.18660164
152	0x3d4651fb	0.048418026
153	0x3df29d2d	0.11846385
154	0xbe2d768c	-0.16939753
155	0x3e328d04	0.17436606
156	0x3ab89a16	0.0014084007
157	0x3db87f8a	0.09008701
158	0xbc7308a1	-0.0148336
159	0x3dc55793	0.09635844
160	0xbdc39ea1	-0.095517404
161	0xbe2f52da	-0.17121449
162	0xbe857c37	-0.2607133
163	0x3c840f0c	0.016120456
164	0x3cdc833b	0.026918044
165	0x3e7df9d9	0.2480234
166	0xbe281d8a	-0.16417518
167	0x3d8567f9	0.06513972
168	0x3de7ec3d	0.11324356
169	0xbe87d1fb	-0.2652739
170	0x3c447f7a	0.011993283
171	0xbe265901	-0.1624489
172	0xbdebf9b2	-0.11522235
173	0xba3d9a9e	-0.00072328176
174	0x3cbd41be	0.023102637
175	0xbc82981b	-0.01594167
176	0xbbc58142	-0.0060273716
177	0x3c8121dd	0.015763218
178	0xbdd76fa5	-0.105193414
179	0x3dc07c35	0.093986906
180	0xbe08be81	-0.13353921
181	0x3d4bbc41	0.04974008
182	0xbe974f9a	-0.2955292
183	0xbd6feb52	-0.05857403
184	0xbcb19ea2	-0.021682087
185	0xbe91d62b	-0.2848371
186	0x3e0327c1	0.12808134
187	0x3d291773	0.04128213
188	0xbc1b0385	-0.009461288
189	0x3bbc4a5e	0.00574617
190	0xbdd6bfbd	-0.1048579
191	0x3e548ed4	0.2075761
192	0xbdb265a5	-0.087107934
193	0xbe64c645	-0.22341259
194	0xbe2f44c2	-0.17116073
195	0xbde04d98	-0.109523
196	0xbda76d84	-0.08175185
197	0xbd1e9c99	-0.038723562
198	0x3ca0a2b9	0.019608842
199	0x3db3aa6f	0.08772742
200	0xbe1838e8	-0.14865458
201	0xbd1a8107	-0.037720706
202	0xbde9e4f1	-0.1142062
203	0xbd6f24bc	-0.058384642
204	0xbda6b41d	-0.08139823
205	0x3d16fb35	0.036860663
206	0x3e23f425	0.16011102
207	0x3c80e5c0	0.015734553
208	0x3cf19067	0.029487802
209	0xbd8bcf55	-0.06826655
210	0xbd96e4b8	-0.073678434
211	0xbe663db9	-0.22484483
212	0x3db545e2	0.0885122
213	0x3e540a45	0.20707043
214	0xbe1ad115	-0.15118821
215	0x3de4e37e	0.11176203
216	0x3e238ae4	0.15970951
217	0x3df837c6	0.12120013
218	0x3d102311	0.035189692
219	0x3de5675b	0.11201354
220	0x3e3b220f	0.18274711
221	0xbdf72949	-0.120684214
222	0x3e8df553	0.2772623
223	0xbe024d6d	-0.12724848
224	0xbe51258b	-0.20424478
225	0xbe4fb57e	-0.20284078
226	0x3c215dec	0.009849053
227	0x3e3e435d	0.18580385
228	0xbe4f217e	-0.2022762
229	0x3db96e79	0.09054274
230	0x3e4dd7df	0.2010188
231	0x3b133da4	0.002246716
232	0xbd085ed9	-0.03329358
233	0x3d64020b	0.05566601
234	0xbe86f73c	-0.263605
235	0xbc2c509b	-0.010517265
236	0xbcfc27b0	-0.030780643
237	0x3dbbe1e1	0.09173942
238	0x3d1cd6be	0.03829073
239	0x39eb1c0b	0.00044843587
240	0xbd9672ed	-0.07346139
241	0x3ceaa731	0.028644176
242	0xbe3dc6e3	-0.185329
243	0xbcbc9adf	-0.023023067
244	0xbd525fae	-0.05136078
245	0x3e3eed26	0.18645152
246	0xbd21182b	-0.03932969
247	0x3d4e97f5	0.050437886
248	0xbd5f68b6	-0.05454322
249	0x3c895565	0.016764352
250	0xbdbfa197	-0.09356993
251	0x3e229139	0.1587571
252	0xbe8e5b99	-0.27804258
253	0x3c832bf6	0.016012173
254	0xbe095773	-0.13412265
255	0x3d03c52b	0.032170456

fc2.bias f4 [64]
0	0xbd0af33e	-0.03392338
1	0xbc828bca	-0.015935797
2	0x3e0c4d9b	0.13701479
3	0x3d2411eb	0.04005615
4	0x3def2624	0.116771966
5	0xbe2bce0b	-0.16777818
6	0xbd4b1098	-0.049576372
7	0x3d961c68	0.07329637
8	0x3ded74ac	0.11594519
9	0x3e9867a9	0.29766586
10	0xbdac4ee0	-0.08413482
11	0x3e72f1bd	0.23725028
12	0x3cb992a6	0.022652935
13	0x3d311f28	0.043242604
14	0xbd9bcc68	-0.07607347
15	0xbc26d2f8	-0.010182135
16	0x3d6f2e31	0.05839366
17	0x3b0b44fd	0.0021250837
18	0xbd99c055	-0.075073875
19	0x3dd462c5	0.10370401
20	0x3d4b2159	0.04959235
21	0x3e64cdbf	0.22344111
22	0xbdd6e298	-0.10492438
23	0xbdd8401e	-0.105591044
24	0xbdadbc3c	-0.084831685
25	0xbe095d2e	-0.13414451
26	0x3d8d78ec	0.0690783
27	0xbde52919	-0.111894794
28	0xbd264d9c	-0.040601358
29	0x3d8aad9b	0.06771394
30	0x3dd3dfad	0.10345397
31	0xbd758f72	-0.059951253
32	0x3c917f4e	0.017760899
33	0x3e0a2c6f	0.13493513
34	0xbb8148da	-0.003945452
35	0xbd52e0a3	-0.05148376
36	0xbe14c0d2	-0.1452668
37	0xbda398c4	-0.07988122
38	0x3dd69610	0.10477841
39	0x3cc9fb43	0.024655944
40	0xbda4a8b1	-0.08039988
41	0x3e80cf30	0.25158072
42	0x3e789219	0.24274482
43	0xbc8e2915	-0.017353574
44	0x3d964e6c	0.073391765
45	0xbd0fa846	-0.035072587
46	0xbda0722c	-0.078342766
47	0xbdeda8d5	-0.11604468
48	0x3dd965b4	0.106151015
49	0xbdff598d	-0.12468252
50	0xbd0e93ad	-0.034808803
51	0x3e27a55b	0.16371672
52	0xbd80c1f3	-0.06286993
53	0xbdd0d7e2	-0.101974264
54	0x3db6a30a	0.08917816
55	0xbdafd9c4	-0.08586457
56	0xbe1e0ee5	-0.1543537
57	0xbe0a534f	-0.13508342
58	0x3db76759	0.08955259
59	0xbdc0c0cb	-0.09411772
60	0x3d30bd66	0.043149374
61	0x3e48b71f	0.19601105
62	0x3d3f3549	0.046681676
63	0xbe140c20	-0.1445775

fc3.weight f4 [4, 64]
0	0xbe9a7c14	-0.3017279
1	0x3de03963	0.10948446
2	0x3e5c95c4	0.21541506
3	0xbdfae7b5	-0.12251226
4	0x3dc7eb98	0.09761733
5	0xbca40a40	-0.020024419
6	0xbbba7319	-0.0056899902
7	0xbdaa57a2	-0.08317496
8	0x3dc1ed7d	0.094691254
9	0x3d9c12bf	0.07620763
10	0xbe96f661	-0.29484847
11	0x3dab7520	0.08371949
12	0xbe30f278	-0.17279994
13	0xbe107037	-0.14105307
14	0x3e13cfe7	0.14434777
15	0xbc51ef77	-0.0128134405
16	0x3d3ec543	0.046574842
17	0x3c503786	0.01270855
18	0xbe3a561e	-0.18196914
19	0x3e07b44e	0.13252375
20	0x3c900656	0.017581146
21	0x3e104272	0.14087847
22	0xbbe204a3	-0.0068975254
23	0xbd06f3ab	-0.032947224
24	0xbf183deb	-0.5946948
25	0xbe389d2e	-0.1802871
26	0xbd9b5f7c	-0.075865716
27	0xbe345bca	-0.1761314
28	0x3ddd38c9	0.108018465
29	0x3dc6d951	0.097094186
30	0xbf21e5fa	-0.6324154
31	0x3e83ad9d	0.25718394
32	0x3e44b5c1	0.19209959
33	0x3e45391c	0.19260067
34	0xbcb51a0b	-0.022107145
35	0x3e61fc0a	0.22068802
36	0x3e1da5b2	0.15395239
37	0x3daa4801	0.08314515
38	0x3e9f9f44	0.31176198
39	0x3e0e5817	0.13900791
40	0x3e6e4f4a	0.23272434
41	0x3d9d930c	0.076940626
42	0x3dccbfd0	0.09997523
43	0x3dd76053	0.10516419
44	0x3d2bb807	0.04192355
45	0x3cd6399d	0.026150519
46	0x3ebfad55	0.3743693
47	0x3e487afa	0.19578162
48	0x3e805e5c	0.2507199
49	0x3ea97576	0.33097428
50	0xbaf71338	-0.0018850332
51	0x3e05920a	0.1304399
52	0x3e7ca48b	0.24672143
53	0x3cb27fc1	0.021789433
54	0x3d52cb6c	0.05146353
55	0x3e12c136	0.14331517
56	0xbec0d0d8	-0.37659335
57	0xbd50258c	-0.050817057
58	0x3e7c48cc	0.24637145
59	0xbe0cc6a6	-0.13747653
60	0xbe3848ea	-0.17996565
61	0x3e1ec019	0.15502967
62	0x3e747d92	0.23876026
63	0x3daa1285	0.083043136
64	0xbc0c5e07	-0.00856734
65	0x3d19604e	0.03744536
66	0x3e8975af	0.26847598
67	0x3d5a40f3	0.053284597
68	0x3e0cf5ce	0.13765642
69	0x3d5fe917	0.05466565
70	0x3ebf93c1	0.37417415
71	0xbd3448cd	-0.04401474
72	0x3d0f0a35	0.034921844
73	0x3e03b748	0.12862885
74	0x3e23b296	0.15986094
75	0x3df36626	0.11884718
76	0xbe60dc0c	-0.21958941
77	0xbc49f7d8	-0.012327157
78	0x3ceb27d9	0.028705524
79	0x3e0eca92	0.13944462
80	0xbc3fbc4d	-0.011702609
81	0x3c003f2f	0.007827564
82	0x3da02365	0.07819251
83	0x3d1b931f	0.037982102
84	0xb9b6e0d8	-0.00034881267
85	0x3e4e095a	0.20120755
86	0x3cd3cda0	0.025854886
87	0x3dd010d0	0.10159457
88	0xbe05782a	-0.1303412
89	0xbe3a5d26	-0.18199596
90	0x3c9526ea	0.018207032
91	0x3bf23d7c	0.0073925834
92	0xbba977c2	-0.005171747
93	0x3e981b15	0.29708162
94	0x3dc5cd06	0.09658246
95	0x3d949680	0.07255268
96	0x3e14fa7d	0.14548679
97	0x3e023d86	0.12718782
98	0x3e132285	0.14368637
99	0xbe7b59e1	-0.24546005
100	0x3e40b68c	0.18819636
101	0xbe14a07b	-0.14514343
102	0x3e77a579	0.24184217
103	0x3dcc740e	0.09983073
104	0x3e70320f	0.23456596
105	0x3d012e0d	0.031538058
106	0x3d34529a	0.044024087
107	0x3e4b32b7	0.19843565
108	0x3c9b91e0	0.018990457
109	0xbe186b8a	-0.14884773
110	0x3f0bf5a3	0.54671687
111	0x3e7c6ea4	0.24651581
112	0xbd1fd0c3	-0.03901745
113	0x3e6ff021	0.23431446
114	0xbe09ac13	-0.13444547
115	0x3e2e1358	0.16999567
116	0x3e0c9b9e	0.13731238
117	0xbdd066f4	-0.10175887
118	0x3e62b7d3	0.22140436
119	0x3e23783e	0.15963838
120	0x3cc1d6e6	0.023662042
121	0xbec764aa	-0.38943988
122	0x3e02a28b	0.12757318
123	0xbdf00cb0	-0.1172117
124	0xbda55396	-0.080725834
125	0x3dfcc496	0.12342183
126	0x3cfe11be	0.03101432
127	0x3e291e50	0.1651547
128	0x3d67679e	0.0564953
129	0x3d9a1ece	0.07525407
130	0x3e92446d	0.2856783
131	0x3e8a7a75	0.27046552
132	0xbd832fde	-0.06405614
133	0x3e59b9ff	0.21262358
134	0x3e426eda	0.18987599
135	0x3d8321fa	0.06402965
136	0x3d21bcea	0.039486803
137	0x3dd2187d	0.10258577
138	0xbe199688	-0.1499883
139	0x3e2a068a	0.16604057
140	0x3d53d643	0.051718008
141	0xbd9e0951	-0.07716621
142	0xbea3bb89	-0.31979015
143	0x3e273f51	0.16332747
144	0x3b976d1f	0.0046211625
145	0xbe35e740	-0.17763996
146	0x3dbd5558	0.09244794
147	0x3d4e0e4a	0.050306596
148	0x3db354c7	0.08756404
149	0x3e019b03	0.12656789
150	0xbe14d408	-0.14534009
151	0x3c25c021	0.010116608
152	0x3ca2921c	0.019845061
153	0xbd7918b6	-0.06081458
154	0x3d67baa4	0.05657448
155	0xbce4b316	-0.027917426
156	0x3eaf4fce	0.34240574
157	0x3e817c01	0.2528992
158	0xbd9dfccb	-0.07714232
159	0x3e3cb96d	0.1843011
160	0x3c67136c	0.014103752
161	0xbc849b0d	-0.016187215
162	0x3e70ec9d	0.23527761
163	0x3e68d7da	0.22738591
164	0x3e37bb39	0.17942514
165	0x3dd62e0c	0.104580015
166	0xbc340951	-0.010988549
167	0x3dc2123b	0.094761334
168	0x3ecf6db6	0.4051339
169	0x3dd19e47	0.10235267
170	0x3e244667	0.16042481
171	0xbdd58f7f	-0.1042776
172	0x3eb5c7a1	0.35503867
173	0xbce8428b	-0.028352043
174	0x3df016a4	0.11723068
175	0x3ef59d25	0.47971454
176	0x3ef04e34	0.46934664
177	0x3d896078	0.06707853
178	0xbe83d451	-0.25747922
179	0x3e9d3b5e	0.30709356
180	0xbe563f4a	-0.2092258
181	0xbe4faad8	-0.20280015
182	0x3d168104	0.036744133
183	0x3e9cb938	0.3061006
184	0xbe649705	-0.22323234
185	0xbd2b926d	-0.04188769
186	0x3dd6a18d	0.10480032
187	0xbe8a84c7	-0.27054426
188	0xbe5bf586	-0.21480379
189	0x3dbbcb8a	0.09169681
190	0x3eb85539	0.3600252
191	0xbe21937f	-0.15778922
192	0x3e5c69d0	0.2152474
193	0x3dcba3e1	0.09943367
194	0x3d06de1b	0.03292666
195	0xbe1879ab	-0.14890163
196	0x3ec52bd2	0.38509995
197	0x3ea46881	0.3211098
198	0xbd7712cc	-0.06032066
199	0x3e892ab6	0.26790398
200	0x3e02f5bf	0.12789057
201	0x3e3d2346	0.18470487
202	0x3dd2e662	0.10297848
203	0xbd569445	-0.052387495
204	0xbd815930	-0.06315839
205	0x3dc29345	0.09500746
206	0x3e898a8a	0.2686351
207	0xbebed3d0	-0.37270975
208	0x3eab45f7	0.33451816
209	0x3d51d100	0.05122471
210	0xbc7ae5dd	-0.015313593
211	0x3e278cd7	0.1636232
212	0xbe55239d	-0.20814367
213	0x3df0e699	0.11762733
214	0xbdf04893	-0.117325924
215	0x3d72645c	0.05917774
216	0xbe11fd97	-0.14256893
217	0xbe3f92f3	-0.187084
218	0xbdf7af56	-0.120939896
219	0x3e75875b	0.23977415
220	0x3dea9680	0.11454487
221	0xbd995b19	-0.074880786
222	0xbe8f05a8	-0.27934003
223	0x3e935e44	0.28782856
224	0xbd010e5b	-0.03150783
225	0x3dd13e64	0.10216978
226	0xbe9a8e15	-0.30186525
227	0x3c7b0043	0.015319887
228	0xbe4bd61d	-0.19905896
229	0xbea32d79	-0.3187063
230	0x3ea66f68	0.3250687
231	0x3e437bbf	0.19090174
232	0x3e52ad57	0.20573936
233	0x3e3a092a	0.18167558
234	0x3dfa83b1	0.122321494
235	0xbe8ded5a	-0.27720147
236	0x3e1d1d4c	0.15343207
237	0xbdf60068	-0.12011796
238	0x3d6dd342	0.0580628
239	0x3e224dc0	0.15849972
240	0x3daf1369	0.08548624
241	0xbd049a6a	-0.032373823
242	0x3e91f69f	0.2850847
243	0x3d8c105c	0.06839058
244	0x3eb11ff8	0.34594703
245	0xbe211e5e	-0.1573424
246	0x3db08779	0.08619589
247	0x3e17563d	0.14778991
248	0xbd92644e	-0.07148038
249	0xbdccf3cf	-0.1000744
250	0x3de4e5d4	0.11176649
251	0xbd36d547	-0.04463699
252	0xbda3cd57	-0.0799815
253	0x3d6f1029	0.05836502
254	0x3e0f8817	0.14016758
255	0x3d7440d6	0.059632145

fc3.bias f4 [4]
0	0x3e697d6f	0.22801755
1	0x3e4a239b	0.19740145
2	0x3df9962b	0.121868454
3	0x3d473415	0.048633654
