dqn_model.pth (torch_old, 28423 bytes, 6 tensors)

fc1.weight f4 [64, 37]
000000 0f 72 af 3d f9 77 03 3c d3 2e 36 be 24 0f 18 be
       0.08566677 0.008024209 -0.177913 -0.14849526
000010 a5 f9 e7 bd d7 d0 95 3d 8b ad 9d 3c 2f 64 47 3e
       -0.11326913 0.07315224 0.01924779 0.19471811
000020 b1 03 52 be 95 ee 3f be 2d 7e a9 bd 26 7c 92 bd
       -0.2050922 -0.18743356 -0.08276019 -0.07152586
000030 12 8d 00 be 82 20 39 be ab 0d 50 be 52 7a 5a bc
       -0.12553814 -0.18078807 -0.20317714 -0.0133348275
000040 0c eb 17 3e 71 6e f3 bc 56 64 15 be c1 71 15 bd
       0.14835757 -0.029715749 -0.14589056 -0.036485437
000050 7d 51 a1 3d 36 07 01 3e c8 24 61 bc b4 d7 a4 39
       0.07876871 0.12600407 -0.0137416795 0.0003144123
000060 0f 1e 8a bd 66 33 d2 bc 10 03 4a 3e 0f a2 56 be
       -0.067440145 -0.025659274 0.19727731 -0.20960258
000070 80 71 ba bd 1c 28 01 be 36 1a 02 be b5 45 cf 3d
       -0.0910368 -0.12612957 -0.12705311 0.101207174
000080 d1 ef d9 bd fd c9 f3 3b 25 b6 5d be a4 07 04 be
       -0.106414445 0.0074398504 -0.21651514 -0.1289354
000090 4d 6a 90 bd 80 09 9f 3e d2 3a 89 ba ab f7 64 bc
       -0.07051525 0.31061935 -0.00104698 -0.013975064
0000a0 a9 0f dd 3c ad 6d 95 be e5 56 05 3e bd eb 6e be
       0.026985006 -0.29185238 0.13021429 -0.23332115
0000b0 bf 3a f3 bd 6a f5 5d be 00 0b 8d be 1c fa 43 3e
       -0.11876439 -0.2167565 -0.27547455 0.19138378
0000c0 a9 72 f4 bc 69 c3 e0 bd 51 ae 11 3e 2b b2 8c 3d
       -0.02983983 -0.109747715 0.14226653 0.0686992
0000d0 86 34 e0 3d 3a 7e 1f bd 74 4e e6 3d 69 f8 a8 3c
       0.10947518 -0.03893874 0.112454325 0.020626264
0000e0 43 da 15 be bd 17 80 bd 6a 14 18 bd 87 c9 20 be
       -0.14634041 -0.06254528 -0.037128843 -0.15701877
0000f0 83 93 b1 3c 40 a9 4c 3b 49 c3 25 be de e2 d6 3d
       0.021676784 0.003122881 -0.16187777 0.1049249
000100 29 27 a5 3d 01 7b 01 3e 85 51 01 3e 5f ed b8 3d
       0.0806411 0.12644579 0.12628753 0.0902965
000110 58 f5 17 3e 3c 10 a7 3c 51 ad a5 bc 3e 84 af bd
       0.14839685 0.020393483 -0.020224245 -0.08570145
000120 2a c5 9f 3d 31 20 59 3d 28 1a 24 be 42 4c 79 3e
       0.07801278 0.053009216 -0.16025603 0.24345496
000130 51 fe 75 3e 99 f1 b9 bd 2e c7 1f be 22 19 24 bf
       0.24022795 -0.09079284 -0.15603325 -0.6410085
000140 cf af 9d 3a f2 ed 86 3e 41 b1 34 3e 34 b5 e0 be
       0.0012030544 0.26353413 0.17645742 -0.43888247
000150 e4 33 28 3d 80 15 a9 bd 20 82 81 3c 53 b7 71 3d
       0.04106511 -0.08256054 0.015809119 0.059012722
000160 77 ee 4c 3e 37 4a 17 be 47 ad 52 3e 2a 6f 92 3d
       0.20012842 -0.14774404 0.20573913 0.07150109
000170 d7 73 17 3e 97 90 8b be b7 60 0b be 73 51 dd 3a
       0.14790283 -0.2725875 -0.13611113 0.0016885236
000180 3b ac a7 3d 6b 3a 69 3d f4 26 6b bc 18 9b 6a be
       0.08187147 0.056940477 -0.014352549 -0.22910726
000190 08 75 94 3e 63 6d 92 3e 7d 95 31 be 58 12 48 be
       0.28995538 0.2859908 -0.17342182 -0.19538248
0001a0 5b 6d 7b be 0b 5c aa bc 17 33 28 3d b5 44 54 be
       -0.24553435 -0.020795843 0.041064348 -0.20729335
0001b0 77 fa 95 ba 66 11 21 bd 6f 5d 8a bc 86 c7 d9 3e
       -0.0011442442 -0.039323233 -0.016890256 0.42535037
0001c0 f6 89 ce be c6 95 da bc d7 d5 4e bd 6b 06 6d bf
       -0.4033963 -0.026682746 -0.050496902 -0.9258792
0001d0 fc 1c 55 bd fc d1 a0 3d 3a 25 d9 3d 7f 5a 7a bd
       -0.052029595 0.07852551 0.106028035 -0.06112146
0001e0 32 60 ab 3d 21 c3 69 3c 56 e7 b6 bc dc f3 cc 3b
       0.08367957 0.014267714 -0.022327106 0.0062546562
0001f0 7c 10 e1 bd 89 cf 0a bd fa e9 a1 bc 43 41 a9 3d
       -0.10989472 -0.033889327 -0.019764889 0.08264401
000200 4f cb 20 be e2 e9 37 be 43 69 33 be ba 30 0e be
       -0.15702556 -0.17960313 -0.17520623 -0.13885775
000210 2e ea 4b bc 9b 75 47 bb 8e d6 02 3e 8f 33 84 3d
       -0.0124459695 -0.0030435089 0.12777159 0.064551465
000220 ba db c4 bd 83 d4 11 3e da 2b ec 3d ac b7 1b 3e
       -0.09612222 0.14241223 0.115318015 0.15206784
000230 eb 71 3a 3e ea 1e b7 3d 8e 49 10 3e bd 8f f1 3d
       0.18207519 0.08941443 0.14090559 0.11794994
000240 6f 1a e8 bd b5 2f f4 bd aa 7b d9 3c ea 05 b6 bb
       -0.11333167 -0.11923162 0.026548225 -0.005554904
000250 b3 ca 8f bd 05 8c 8b be 80 2f 76 bd f2 8e 60 bd
       -0.07021084 -0.27255264 -0.060103893 -0.054823823
000260 20 b7 3c bd fb 2c 5c 3e 08 74 98 bc 43 1c 0f bf
       -0.04607308 0.21501534 -0.018610016 -0.559025
000270 4c 28 28 bd f4 3c 90 bf 71 0c 8d bd 5e 10 76 bd
       -0.041054055 -1.1268601 -0.06887139 -0.060074203
000280 9d bc 88 3d 1c bf c7 bd 01 64 ab bd 1a 9e 43 be
       0.066766 -0.09753248 -0.083686836 -0.1910328
000290 65 7d 0a 3d 4e d3 40 3d 75 16 37 bc 3b ba 2f 3e
       0.03381099 0.047076516 -0.011174788 0.17160885
0002a0 aa de 05 be 3d 7a 7f bc f0 30 00 3e 46 54 40 bc
       -0.13073221 -0.015593109 0.12518668 -0.011738842
0002b0 a6 83 35 3e ca 38 98 bc a8 5d 5f 3d 5c 4f f6 3d
       0.17726001 -0.018581767 0.054532677 0.12026855
0002c0 b1 b2 37 bd 53 3d f7 3d 0e 73 fb 3d be 83 cf bd
       -0.044848148 0.120722435 0.12277804 -0.1013255
0002d0 30 f6 90 bd ab 4e 7b 3d 14 c6 9b 3e 49 e2 5f bd
       -0.070782065 0.06135432 0.3042456 -0.05465916
0002e0 5c 8c 5d 3c 47 b3 9a 3d 1b e7 4e bc 14 56 7f bd
       0.013522234 0.07553726 -0.012628342 -0.06233795
0002f0 74 d9 c5 bd c5 f1 d2 3d e3 fc ab 3e b8 73 48 be
       -0.096606165 0.1030002 0.33591375 -0.19575393
000300 f4 91 9e be a0 8c 22 be 95 44 67 bf 69 ed 3b bd
       -0.30970728 -0.15873957 -0.9033902 -0.04588071
000310 c9 e7 7f bc ea 54 5c bd a6 c8 c7 bc a4 6f f6 3d
       -0.015619227 -0.053791918 -0.024387669 0.120330125
000320 59 61 cd 3c bc b5 2c 3e d4 a9 44 be ad 39 06 bd
       0.025070833 0.16866201 -0.1920541 -0.032769848
000330 91 8f 40 3e 12 28 08 3e 2d 90 53 bd 5c 06 fd 3d
       0.18804766 0.13296536 -0.05165117 0.123547286
000340 53 e8 f4 3d da 8b f1 3c 1c 69 4e bc 45 ae a6 bd
       0.11958375 0.029485632 -0.012598302 -0.08138708
000350 c9 82 0f 3d 22 40 30 3e 0a 7d 4d 3d c5 a9 1e 3d
       0.035036836 0.17211965 0.050168075 0.038736124
000360 33 89 23 be 10 e9 b3 bc 40 b2 71 3e 01 77 4d 3e
       -0.15970306 -0.021961719 0.23603153 0.20064928
000370 c5 b8 5b 3c 9b db 67 3d ba a5 05 3e 07 d6 0d be
       0.013410752 0.056605916 0.13051501 -0.13851176
000380 b6 e8 ba be 9c 6b e4 3d 7b a5 08 3d 9d 93 fa 3d
       -0.3650567 0.11153337 0.03336094 0.12235186
000390 99 7b 56 bd 47 63 bd be 51 9e a6 bd d1 57 1e 3e
       -0.052363966 -0.36989805 -0.08135665 0.15463187
0003a0 5a fe 44 3e 2b 38 08 be c5 36 1a 3e e7 46 66 be
       0.19237652 -0.13302676 0.15059955 -0.22487985
0003b0 b7 08 5c 3d 35 40 76 3d 8d ad a1 be b1 39 80 be
       0.05371925 0.060119826 -0.3157772 -0.25044015
0003c0 89 33 28 3e 38 60 52 3e a1 8d b6 bb 44 93 e9 bd
       0.16425909 0.20544517 -0.0055710827 -0.11405042
0003d0 2a 6f 86 3d c8 6b 48 be 8a 8d 9e 3d 2a 21 8a be
       0.065641716 -0.19572365 0.0774184 -0.26978427
0003e0 db 3c f4 3d a2 14 9f be 42 97 b6 bd 18 bd 97 3d
       0.1192567 -0.3107043 -0.08915569 0.07409114
0003f0 80 6d 0d bb df 93 d9 bc 4b c9 f5 3c 63 e2 a0 be
       -0.002158016 -0.026559768 0.03000321 -0.3142272

fc1.bias f4 [64]
000000 a1 04 ed 3d 24 f0 7e bc 91 1c aa bd 19 76 9e bd
       0.115731485 -0.015560184 -0.0830623 -0.07737369
000010 c9 dd 2f 3e 5e ad 01 bd 96 9c e6 bd 35 dd e6 3d
       0.17174448 -0.031659476 -0.11260335 0.11272661
000020 92 fa 5c 3d 21 06 76 be 3a 2f 39 3e 0c 21 2b 3e
       0.0539499 -0.24025775 0.18084422 0.16711825
000030 af ad cb 3d 1f 24 62 3d c5 db 6b 3b b3 1d e0 bd
       0.09945237 0.05521023 0.0035989147 -0.10943165
000040 69 19 5f 3d 30 3c 8a bd 59 31 4b bc e4 d2 49 be
       0.054467592 -0.06749761 -0.012401902 -0.19709355
000050 f4 84 a2 bd b3 b6 12 3d f9 76 89 3c fa 63 28 be
       -0.07935515 0.035818767 0.016780363 -0.16444388
000060 d3 69 0f be 4e 6c 8a 3e 8b 25 c4 bc e0 ea 7c bd
       -0.14005212 0.27035755 -0.023943683 -0.06174743
000070 6d 1e 05 3e 77 fe 43 3e e5 06 81 bd 08 55 6a be
       0.12999888 0.1914004 -0.06300143 -0.22884
000080 59 30 18 3e a0 43 24 3b 81 d9 ad bd da 0c 23 3d
       0.14862193 0.0025064722 -0.08488751 0.039807178
000090 5b f6 d9 bd 98 eb 85 3d 5b 55 02 bd 26 b9 47 be
       -0.10642692 0.065390766 -0.031819683 -0.19504222
0000a0 47 e4 eb ba 8e dd 0e bd 59 f7 41 bd c1 3d 34 3e
       -0.0017997109 -0.03487926 -0.04735503 0.17601682
0000b0 70 53 ce 3c 6e 1d 3f bd 6a c6 ad 3d ff 14 5a be
       0.02518627 -0.046658926 0.0848511 -0.21297072
0000c0 8c f9 46 bd 49 4e 02 3d 78 65 cf bd f2 6a 6d 3d
       -0.04857783 0.03181294 -0.101267755 0.05796332
0000d0 9f 9f 1b bd d8 89 98 bd b8 97 05 be e9 53 90 3b
       -0.037994023 -0.074481666 -0.13046157 0.004404534
0000e0 d9 b0 07 3d b9 72 00 bd bc d4 a6 bd 64 61 d4 bd
       0.03312764 -0.031359408 -0.081460446 -0.10370138
0000f0 77 b7 2e 3c 65 60 57 3d 65 44 35 3d 04 b3 e5 3d
       0.010663859 0.052582163 0.04425468 0.11215785

fc2.weight f4 [64, 64]
000000 ae 74 81 bc 43 0d 12 3e 27 02 86 3c 70 c6 dc 3e
       -0.015802708 0.14262871 0.016358448 0.43120146
000010 c9 64 6f 3d 79 a1 51 bd f4 fd 04 3e 64 82 76 3e
       0.058445726 -0.051179383 0.129875 0.24073178
000020 8f 2c 27 3e 32 01 31 ba af 1a 0f 3e 57 66 59 be
       0.16325592 -0.0006752192 0.13975023 -0.21230446
000030 24 89 ca bd 66 cd 32 3d 8b d5 1a be 08 86 20 bd
       -0.09889439 0.043652914 -0.15120523 -0.039190322
000040 b5 90 17 bd 45 e4 81 bd fa 4f d1 3c f7 ca c6 bc
       -0.037003238 -0.06342367 0.025550831 -0.024266703
000050 60 93 00 be 75 f3 63 be f3 c9 c7 3d 97 fe 35 be
       -0.12556219 -0.2226084 0.09755316 -0.177729
000060 e8 05 48 be cd 70 c2 be 91 e6 24 3e ba 20 a2 3e
       -0.19533503 -0.37976685 0.16103579 0.31665593
000070 cf f7 a2 3d 75 a3 88 3b 0f 95 0b 3e c5 e3 1b bd
       0.07957422 0.004169876 0.1363108 -0.038059015
000080 55 08 04 3e d8 99 aa bc ad 8a 11 be cc b3 0e bd
       0.12893803 -0.020825312 -0.14213057 -0.034839436
000090 f6 02 d4 bd e9 69 2c 3e 0c 48 a7 3d ed 19 e4 bd
       -0.10352127 0.16837277 0.08168039 -0.111377575
0000a0 bd 55 09 be 57 b3 41 bd 88 d1 f6 3d 83 bd f6 bc
       -0.13411613 -0.047290172 0.12051684 -0.030119663
0000b0 80 f3 c5 3c e2 40 fe bc a9 ab 2f 3d 45 6a 46 3d
       0.024163961 -0.031036798 0.042888317 0.04844119
0000c0 e4 3a 82 be 02 a7 0b be 4b 3f 8d 3d cb d2 c6 bc
       -0.25435555 -0.13637927 0.06896838 -0.024270436
0000d0 ac b1 b2 bd 38 83 5b 3e 7f c2 02 be 04 30 68 3d
       -0.087252945 0.21436775 -0.12769507 0.056686416
0000e0 04 ef 63 3c bc 0c db bc c0 7e a3 be 3c 93 83 bc
       0.013911966 -0.02673947 -0.3193264 -0.016061418
0000f0 28 96 08 3e 05 f4 2d 3e ff 8b c5 3c 62 bf f4 3c
       0.1333853 0.16987617 0.024114607 0.029876415
000100 da 35 4b 3e fa ba c4 3d be c3 96 be b1 92 99 be
       0.19844761 0.096059754 -0.29446214 -0.2999473
000110 b6 7b 15 3e 85 ff 0d 3e 32 65 04 3d e9 76 f2 3d
       0.14597973 0.13867004 0.03232307 0.118390866
000120 2f 93 fd 3b 88 15 4c bd bc a3 5c bd 14 f4 79 3e
       0.007738493 -0.04982522 -0.053867087 0.24409515
000130 06 dd 02 be 21 aa 1d 3e a2 9f 1c bc 86 d5 bf 3d
       -0.12779626 0.1539693 -0.009559544 0.09366898
000140 9f da 12 3e cd ec 89 3d 58 59 50 b8 d3 f0 0d bd
       0.1434121 0.06734619 -4.9674272e-05 -0.034653496
000150 b7 83 fc bb 79 4a a0 bd 3b c2 2f 3c fe 81 6a be
       -0.0077061313 -0.078267045 0.0107274605 -0.2290115
000160 62 82 61 3d fb d1 34 3e ab f0 43 be 15 26 1f be
       0.055055983 0.17658226 -0.19134776 -0.15541871
000170 68 86 d7 3d 78 d1 55 3b d3 92 b9 bd d8 18 b8 3b
       0.10523683 0.0032626074 -0.090612076 0.005618196
000180 96 ed dc bd be 58 38 bd 88 cf 22 bd c2 e5 74 bd
       -0.107875034 -0.045006506 -0.0397487 -0.059789427
000190 31 88 9e bc 69 ce b9 3d e6 d8 2b 3d 22 a4 d3 bd
       -0.01935205 0.09072573 0.041954897 -0.1033404
0001a0 67 2f d5 3c ad 72 d5 bc 88 25 6c bd 69 a9 a3 bd
       0.02602358 -0.026055658 -0.05765298 -0.07991297
0001b0 60 fd 3b be a1 65 42 3d 0e c3 08 be 3c cd 87 bd
       -0.18358374 0.047460202 -0.13355657 -0.06630942
0001c0 19 49 3f be 5e 69 d3 3c bc d4 1f bd 3e d5 0b 3e
       -0.18680228 0.025807079 -0.03902124 0.13655564
0001d0 db 32 fc bd 07 62 72 be 37 9e 96 bd 36 85 74 bb
       -0.123143874 -0.23670207 -0.07354396 -0.0037310845
0001e0 e4 c6 f7 bc ba bc 06 3d c1 40 6f 3e 47 47 dc 3d
       -0.030246206 0.032894827 0.23364545 0.107557826
0001f0 92 26 41 be cf 19 0d 3d d1 9d c9 bd 6f 4d df 3b
       -0.1886237 0.03444844 -0.09844554 0.0068146507
000200 3d f0 67 b9 42 08 79 bd 4b ee 67 bd da 31 dc 3d
       -0.00022119372 -0.06079889 -0.05662374 0.10751696
000210 c2 f4 10 3e 97 75 0e 3e cb 67 e4 bd 70 af 74 3d
       0.14155868 0.13912044 -0.111526094 0.059737623
000220 df fc 0d 3e e8 75 00 be 1b 38 38 3d 26 11 44 3e
       0.13865994 -0.12544978 0.04497538 0.19147167
000230 2a 9e 97 bb a9 a2 07 3e ed 8f e8 bd 2a 6b 91 bb
       -0.004627009 0.13245644 -0.11355577 -0.004437824
000240 c1 e3 21 be 2d dd 17 3e 2b 71 22 3d fa 12 80 bc
       -0.15809537 0.14830466 0.039658707 -0.015634049
000250 fd 4c 5e bd d2 40 da bc d4 18 bb 3c 2a 39 07 3e
       -0.05427264 -0.026642237 0.022838987 0.132054
000260 45 2c 9d 3d f4 ee 7f 3e 06 d6 a7 ba 46 51 59 3e
       0.07674459 0.24993497 -0.0012804873 0.2122241
000270 39 48 aa 3d 5f 82 70 3e 14 5e 26 3e a7 6f 71 3d
       0.08314557 0.23487233 0.16246825 0.05894437
000280 10 03 12 be 18 0f a3 bc eb f1 65 be 7a d3 05 3e
       -0.14258981 -0.019904658 -0.22455566 0.13068953
000290 2c 5f 26 3e f0 70 a0 3d 13 0a 90 bc 78 d9 ea bc
       0.16247243 0.07834041 -0.017582929 -0.02866815
0002a0 02 2b 2d 3e e9 29 ab be bc eb f4 3c 2c c5 71 bd
       0.16910937 -0.33430412 0.029897563 -0.05902593
0002b0 bb 41 55 bd 57 3c 0e 3d 4b aa 58 3d ee 33 d3 bc
       -0.05206464 0.034725513 0.05289678 -0.025781598
0002c0 51 ad 44 3e 3e fc 0d be 98 b8 bc bd 8a 49 f4 3d
       0.1920674 -0.13865754 -0.09214896 0.11928089
0002d0 79 a8 0e bd 6d d0 ae 3c 42 eb 0d be d5 ae 57 bd
       -0.034828637 0.02133962 -0.13859275 -0.052656967
0002e0 ad aa 68 3d 0f 44 d6 bd 99 e6 84 3e df b1 22 3e
       0.056803394 -0.104622 0.25957182 0.15888165
0002f0 b3 d1 e3 bc 62 44 9e 3c 8f e8 8f be 49 b5 2b bc
       -0.027809953 0.019319717 -0.28107116 -0.0104802335
000300 57 42 9f be 82 11 98 bd b7 6a a5 3e e2 7e 88 be
       -0.311053 -0.07425214 0.3230798 -0.26659304
000310 8c 73 05 be 04 50 40 be 70 15 2a 3e 1d 54 5b 3d
       -0.13032359 -0.18780524 0.1660974 0.053547014
000320 fc 59 18 be c5 9e 86 be d8 9a bb 3c 9e 0c 72 3d
       -0.14878076 -0.26293007 0.022900984 0.059094064
000330 01 37 79 be e3 1d 3a bd ee a2 00 be d8 bc be bd
       -0.24337389 -0.04543866 -0.12562153 -0.09313363
000340 7d 9f 67 3d 7a e3 01 be 44 79 90 be e6 89 eb bd
       0.056548584 -0.12684432 -0.28217518 -0.115009114
000350 b4 6f 7b 3e d4 2c 1a 3e b1 0c 9d 3d 8d 15 9a bd
       0.2455433 0.15056163 0.07668436 -0.07523642
000360 3e 92 a3 3a 2b 86 23 bd 28 28 4c 3e 75 ab cb 3d
       0.0012479497 -0.039922874 0.19937193 0.09944812
000370 41 da 9f 3b e6 34 09 bd 53 b8 45 be 0a db 9c bd
       0.004878313 -0.033497714 -0.19308595 -0.07658966
000380 8d 3a d2 bd 45 f5 17 be 5f ee 80 be 5c a9 2a 3d
       -0.10265074 -0.14839657 -0.25181863 0.04166542
000390 6c 58 8d be 7f 89 67 3e be 8d c1 bc c6 e5 6b 3e
       -0.27606523 0.22611044 -0.023627158 0.2303687
0003a0 22 e2 11 3e d9 65 35 3e fd 49 9b 3d 99 04 90 bd
       0.14246419 0.17714633 0.075824715 -0.07032127
0003b0 8e a8 71 be 11 03 3f 3e 95 2d 2c be f8 24 24 be
       -0.23599455 0.18653513 -0.16814263 -0.16029727
0003c0 77 9a 5a 3c ab 1e 17 be 51 2d 4f be 16 a4 98 bd
       0.013342491 -0.14757793 -0.2023213 -0.07453172
0003d0 03 fd 5c 3d 85 73 f0 bd 36 b7 a7 be 66 17 33 3d
       0.05395223 -0.117407836 -0.32756966 0.043723486
0003e0 0a e0 e1 bc b4 c6 1f be e2 18 cc bd a3 6f 1f 3d
       -0.02757265 -0.15603143 -0.099656835 0.038924824
0003f0 1d a6 80 be d9 11 00 3e 4f d3 0e bc 8d 69 03 be
       -0.25126734 0.12506808 -0.008717372 -0.12833233

fc2.bias f4 [64]
000000 9a cf e0 bc de aa 78 bc fd ab 80 3d ce ae 7e 3d
       -0.027442742 -0.015177457 0.06282804 0.062178425
000010 44 f6 b0 3d b4 9b 20 be 68 01 0e bb 8f 4d 48 3d
       0.086407214 -0.15684396 -0.0021668319 0.04890209
000020 c6 39 63 3a 40 ff 81 3e 7e 7c 28 bd 7f a1 42 3e
       0.00086679717 0.25390053 -0.04113435 0.19006918
000030 62 62 ab 3d be 64 a9 bd 44 ad c0 bd c3 2b 14 3d
       0.083683744 -0.08271168 -0.09408048 0.036174547
000040 f8 92 b8 bc c5 a2 5c 3a 98 92 7e bd 12 61 ac 3d
       -0.022531018 0.00084165885 -0.06215152 0.08416952
000050 7b 6a 6d 3d 3a 1c 8a 3e 36 ed c6 bd 3c 83 87 bd
       0.057962876 0.2697466 -0.09713213 -0.06616828
000060 44 d0 95 bd 9a 8d 2b be 1c b3 04 3e 94 be f7 bd
       -0.07315114 -0.16753235 0.1295895 -0.12096897
000070 89 69 20 3d 2f 94 18 3e 36 fa cd 3d 5d b4 65 3d
       0.039163146 0.14900278 0.100574896 0.05608021
000080 c5 b7 3d bc 6a 5f 4c 3d b3 d4 ec 3c b2 46 cd bc
       -0.011579459 0.04989568 0.028910017 -0.025058124
000090 9c 36 5b bd 10 f1 c1 bd 61 69 4b 3e 3c 37 2e bd
       -0.053518876 -0.09469807 0.19864418 -0.042533144
0000a0 8c c5 ea bd 97 94 93 3e 44 7a f1 3d 82 1e 50 bd
       -0.1146346 0.28824303 0.117908984 -0.050810345
0000b0 14 2a 69 3d b1 8e af bd b3 10 11 3e a2 f7 cb bd
       0.056924894 -0.08572138 0.14166526 -0.099593416
0000c0 7c be 33 3d 0e c1 93 bd 80 c9 d4 bd 07 79 55 3e
       0.043882832 -0.07214557 -0.103899956 0.2084695
0000d0 b1 0f 7a 3b ef c2 b6 bd 36 28 1f 3e 18 d7 33 be
       0.0038156325 -0.089238994 0.15542683 -0.1756252
0000e0 8b 98 50 be 78 42 fa bd e9 67 4d 3d 62 8f 99 bd
       -0.2037069 -0.12219709 0.050147925 -0.07498051
0000f0 b2 53 85 3d cc 94 71 3e fd 1b 59 bb 62 89 63 bd
       0.06510104 0.23591918 -0.0033128255 -0.05555094

fc3.weight f4 [4, 64]
000000 68 c9 80 3e 57 ba 5c 3e 61 b2 41 3e f9 e9 70 bd
       0.2515366 0.21555458 0.18915702 -0.058816884
000010 c4 c3 c7 3d 3d 5d ac bc 6f fa 99 3d e5 a8 9b bd
       0.09754136 -0.021040553 0.075184695 -0.076005735
000020 c5 0e 67 3e 47 c8 8e 3d a4 32 8a be 9a 1c 15 3e
       0.22564228 0.069717936 -0.2699176 0.14561692
000030 fc 97 cb 3d 46 32 8c 3d 8a 10 19 bd e4 4d 6d bd
       0.09941098 0.068455264 -0.03736929 -0.05793561
000040 0d 15 2f bd 9a 8a 70 3e a5 f0 8a 3e ff b6 20 3e
       -0.042744685 0.23490372 0.27136722 0.15694807
000050 c0 1d 81 bd d8 95 2d 3d 90 26 6e bd f8 ac 05 be
       -0.063045025 0.04237923 -0.058142245 -0.13054264
000060 12 3b a7 be 0e 4f 57 be 25 11 5c be 19 71 8c bd
       -0.32662255 -0.2102625 -0.21490915 -0.06857509
000070 f7 4d 45 3e 87 47 06 3e f5 92 33 be c2 67 96 3d
       0.19268022 0.13113223 -0.17536528 0.07344009
000080 02 d7 8a 3d 03 0a 05 3f 04 cc fa 3c 25 08 af 3d
       0.06779291 0.519684 0.03061486 0.08546475
000090 b2 e2 1e 3e 00 2b f4 bd 8d c8 a9 3d 6e 1d 31 3e
       0.15516165 -0.11922264 0.08290205 0.17296383
0000a0 38 c6 4f bc 87 85 ac 3d c0 02 81 3d a0 2a 09 3e
       -0.012681536 0.08423906 0.06299353 0.13395166
0000b0 73 00 92 3d b2 ba 87 bb 9f fa f7 3d fa 0c a7 3e
       0.07128992 -0.004142129 0.12108349 0.32627088
0000c0 4e 5e 00 3d 66 13 58 3e ef 60 d1 3c a8 a1 a4 3e
       0.031339936 0.2110115 0.025558917 0.32154584
0000d0 1b db 90 3e b4 5c af be cf 84 a1 3d a3 57 ca bd
       0.28292164 -0.34250414 0.07886659 -0.09879997
0000e0 40 ab a0 bd 1d 99 12 3d ba 29 85 3d b6 7e 9a 3d
       -0.07845163 0.03579055 0.06502099 0.075436994
0000f0 07 f3 5b bd 5e 3f 23 3e 00 d6 a9 bd f3 d4 da 3d
       -0.053698566 0.15942141 -0.082927704 0.10685148
000100 56 c0 58 3e 57 58 cf 3d fe 02 2e 3e 69 ae f8 3d
       0.2116712 0.10124271 0.16993329 0.12142641
000110 27 53 84 3d 28 79 05 bd 12 a0 10 3e 8d 37 91 bd
       0.064611726 -0.032586247 0.14123562 -0.070906736
000120 56 74 d2 3c b4 99 93 3d db 65 d8 bd 50 45 ee 3d
       0.025690239 0.07207051 -0.105663024 0.11634314
000130 99 bb 90 bc 95 96 24 3d 8e 70 06 3c b2 6a cd 3c
       -0.017667579 0.04018267 0.008205546 0.02507529
000140 bb b1 2b be d6 07 b1 3e 6d 9e 8a bd f0 66 3c 3d
       -0.16767018 0.3457629 -0.067684986 0.045996606
000150 6a 82 d0 3d 83 42 0c 3e ee 53 1a be 2e 70 6d 3d
       0.101811245 0.13697247 -0.15071079 0.05796831
000160 b8 f3 18 3e 62 d4 2f be 17 6c 8c bd 67 ac 12 3d
       0.14936721 -0.17170861 -0.06856554 0.035808947
000170 04 a3 9c 3d a2 b5 f2 3d bb 30 45 3d e6 35 cd 3d
       0.0764828 0.1185105 0.048142176 0.10020046
000180 4b d6 82 3d 37 74 a2 3e 72 e1 50 3e c0 ce bd 3d
       0.063885294 0.3172929 0.203985 0.0926795
000190 98 61 59 3d 8a 4e 5d be fd 45 77 3d a1 ea 7d 3e
       0.05307159 -0.21611992 0.06036948 0.24796535
0001a0 da a9 90 bc 8f 3a 06 3e 0f 39 06 3d 3e cd e2 3d
       -0.017659117 0.13108276 0.03276926 0.11074303
0001b0 69 95 04 3e fd 6c eb bd af 18 00 3e f1 3e f3 3e
       0.1294762 -0.11495397 0.12509416 0.47508958
0001c0 d7 37 05 3e c8 93 31 3e fa 58 2e 3d ae 87 1a 3e
       0.13009582 0.1734153 0.042565323 0.1509082
0001d0 18 14 70 3e 78 cc be 3c 0b 7d ac 3d 8e e7 f8 3d
       0.23445165 0.023290858 0.084222876 0.121535406
0001e0 92 c3 f5 bd 35 66 38 be bd 8c 3c 3e 33 55 a1 be
       -0.12000193 -0.18007739 0.18413062 -0.31510314
0001f0 a8 2e 34 be 1b 62 bb 3b 26 fd 1a be c5 5f 06 3a
       -0.17595923 0.005718482 -0.15135631 0.0005125965
000200 df f1 6d 3e fb db 8f 3d db d6 27 3e 0d 3d 93 3e
       0.23236798 0.0702438 0.16390555 0.28757516
000210 42 15 06 3f 94 58 38 be 3c d6 51 bb 94 8a a1 3d
       0.52376187 -0.1800254 -0.0032018563 0.0788776
000220 63 b9 1e bd bd 3c c2 3d 42 1f df be 4b 2a 5f 3e
       -0.038751017 0.09484241 -0.43578535 0.21793477
000230 ce 53 32 3e e1 1d e4 bd 33 5c 71 bd 2e 15 12 3e
       0.17414781 -0.111385114 -0.05892582 0.14265892
000240 2a e7 de be 0a a2 91 bc d7 c6 a5 be fc 57 1e 3d
       -0.4353574 -0.017777462 -0.32378265 0.038658127
000250 43 64 12 be 79 bd 20 3e 84 4f c7 bd ad 16 72 3a
       -0.1429606 0.15697278 -0.09731963 0.00092349463
000260 f7 d1 65 be 5c 1e 18 be 9c 72 22 bc b6 71 38 be
       -0.22443376 -0.14855331 -0.00991502 -0.18012127
000270 87 f8 0f 3e af b5 4f 3e 55 b2 0d 3f 74 5f b9 3c
       0.1405965 0.2028415 0.5535024 0.022628523
000280 50 a5 cf bd 26 47 f7 bb 34 8c 97 3d 38 83 1d 3e
       -0.10138953 -0.0075463234 0.073997885 0.15382087
000290 36 47 11 3e e2 35 c4 bd 02 81 ab 3d 09 50 81 3b
       0.14187321 -0.0958059 0.08374216 0.0039463085
0002a0 6f 51 dd bd 9a ff 06 3e dc af f3 3d 70 ef 3e 3e
       -0.10806548 0.13183442 0.11898777 0.18646026
0002b0 23 d9 70 3d 96 cb 85 bd 85 d5 10 3e c8 b7 18 3f
       0.058800828 -0.065329716 0.14143951 0.5965543
0002c0 48 72 82 3e 0c 43 22 3d 8a e2 da bd 9d 42 4f 3e
       0.25477815 0.039614722 -0.1068774 0.20240255
0002d0 74 91 96 be 6b 90 03 3e 52 86 b2 3d a7 39 aa bb
       -0.29407847 0.1284806 0.08717026 -0.005194861
0002e0 62 7f c8 be 2c 90 f0 bd d1 57 7e be ff bd 4b be
       -0.39159685 -0.117462486 -0.24838187 -0.19896697
0002f0 2b cb dc bd 64 35 07 3e 72 cc 47 be c4 ad 00 3d
       -0.10780939 0.1320396 -0.19511583 0.031415716
000300 5b 1b 80 3e 8a aa f7 3d 84 ff a5 3d c4 50 07 bf
       0.2502087 0.120930746 0.08105376 -0.52857614
000310 16 ec 4f 3d 79 c1 00 3d e2 c5 83 be 6b 1a 04 3d
       0.05076226 0.03143451 -0.2573691 0.032251757
000320 03 8d 2d 3e 9d de 25 3e 13 18 4a bc 36 b7 02 3e
       0.16948323 0.16198201 -0.012334841 0.12765202
000330 9d 5f b3 3d c9 9f 8c 3e f8 dc 31 3d df fa 5a bd
       0.08758471 0.27465656 0.043423623 -0.053461906
000340 a3 bc 83 3e af 17 60 3e eb 14 ac 3e 6f 41 2f 3d
       0.25729856 0.21884035 0.3360971 0.04278701
000350 c3 f2 45 bd cd 69 49 3e d0 2d 4b be ba 23 32 3e
       -0.04832722 0.19669266 -0.19841695 0.17396441
000360 45 21 64 3c bd 28 2c be 6b af 06 be da f9 46 3e
       0.013923948 -0.16812415 -0.13152854 0.19431248
000370 f5 f2 9c 3e fe 84 6c bc f0 ed 67 be 05 5c e3 3d
       0.30654112 -0.014436005 -0.2264936 0.11101536
000380 7e 81 e9 bd aa a3 05 3f 94 1b 87 3d 0c 91 41 3e
       -0.11401652 0.52202857 0.06597057 0.18902987
000390 13 d9 00 be f9 58 53 3e db 71 46 3e 7f c0 43 3e
       -0.12582807 0.20639409 0.1937937 0.191164
0003a0 10 aa e9 be 47 b9 08 3e b6 9a 30 3e de 19 25 be
       -0.4563756 0.13351928 0.17246518 -0.16123149
0003b0 dd 60 81 3e fa eb 0b be fe 95 d2 3d c7 34 bd bd
       0.25269213 -0.13664237 0.10282515 -0.09238582
0003c0 ea 2a 79 3d cf a5 bf bd 61 9b 81 3e 75 38 37 3e
       0.06083194 -0.09357797 0.25313857 0.1789263
0003d0 08 4b 2e 3e 14 66 75 bd 1f 3f 5e 3d 66 8e 65 3e
       0.1702081 -0.059911802 0.054259416 0.22417602
0003e0 02 3d 83 be 35 3f 3f be 48 4c 03 bf dd 3f 56 bd
       -0.25632483 -0.18676455 -0.5128827 -0.052307
0003f0 98 5a 9b be 9a 9c 3f 3c 06 d2 e8 bd 95 1a 15 3e
       -0.30342555 0.011695052 -0.11368184 0.14560921

fc3.bias f4 [4]
000000 56 16 45 3e 8f f2 29 3e f2 c4 69 3d d4 4b 3a 3d
       0.19246802 0.16596435 0.057072587 0.04548247
