dueling_dqn_model.pth (torch_old, 149543 bytes, 9 tensors)

fc1.weight f4 [64, 37]
00000000: 61b5 a1bc 2719 153e 6407 07be 1ebf 31be
00000010: 389c 8f3d 57fa 483c 108b e93c 4393 eb3d
00000020: 88e0 d83c 29dd f7bc ad74 f33b 2271 babd
00000030: 85f2 59be 040d d9bc 90c5 a1bd 911a ebbc
00000040: 1875 043e 711a 9c3d d8b0 9cbd 0f0e 74bd
00000050: ac05 9c3d 892d 143e 74d3 85bd 2936 023e
00000060: 0fb0 293c c244 70bd 4b09 4e3e 1a1a 1bbe
00000070: cb83 35bc 4c95 c2bc 0d7f 18be eb34 573e
00000080: aae2 02bd 475f 6bbd 9546 40be be96 21be
00000090: ba36 81bd 97bb 2a3e 0b77 713d ea74 563d
000000a0: a9a5 423b 1db2 e8bd 6f29 bfbd 27db 5cbe
000000b0: d986 8c3d b666 ba3c 0619 ce3e 283d 8e3d
000000c0: 8c5c 03be 6d6c fb3b 71cb 2e3e 3e8f 0b3e
000000d0: dde4 073c eb31 adbc 23e5 083e 082c 80bd
000000e0: 3605 83bd f1f5 f1bd 88df 26be d7f3 10bd
000000f0: e509 893c 11fc 3c3e 49c8 37be ff21 8d3d
00000100: 6c81 353e 1c66 90bd dc0f 483d 3dc2 b83c
00000110: 77e0 fcb8 5b03 1e3e 8479 c237 cb9e 9ebd
00000120: 067c cf3c 9810 be3d 4a66 6a3e 5b8f 0b3e
00000130: 589b 743d 25c3 c3bd b3ac fd3d 71e7 9dbe
00000140: 46a3 a6bc 8f07 393e bfbc 933d e3ff b6bd
00000150: c986 5ebd 9727 bbba fe3a c13d 2b68 d6bd
00000160: 0736 b13c f78f 2ebe 5370 053e 1121 d03d
00000170: 37d0 4d3e 14ba 5f3d a529 47be e681 833c
00000180: 608b ee3d 1a17 27bd d00d 41be e1ed 3ebe
00000190: 96ef 3d3e 9fd3 193e 473b 7fbd 90e9 fcbd
000001a0: 21bb 18be 04a0 b63b 71c9 7bbd f6fe 6dbe
000001b0: 4c3a 0dbe c07e 4d38 768a 4fbd 2758 1d3e
000001c0: 95de c2bc 8c63 c93d 72c2 cc3d 1e9f ecbd
000001d0: e766 843c 7378 a6ba c1f3 4abd 5f07 a83d
000001e0: bb7d e3bd 5853 96bb a3f6 023c 8b0c 433d
000001f0: 2e7f 7ebd 2d50 06bd f246 37bc e12c 7dbd
00000200: d669 87bd e697 03be 72e0 1dbe 849f 533d
00000210: da26 98bd 8d72 073c 6590 af3d 8a8e d03b
00000220: ec44 b5bd 24f9 013e 8041 3e3d 2022 e13d
00000230: fc3d 5b3e e1a2 403e dacc 1a3e 0ef1 27bd
00000240: 9743 3fbe a392 98be ec22 dc3d f41a 363c
00000250: 7070 14be 3797 d3bd 0067 8cbd 4a69 58be
00000260: 60a8 33bd a932 f63d b65c 883d 3edd 79be
00000270: 6fc0 943d 8297 e1be 6692 f6bc 6c56 58bd
00000280: 917c d0bb 6150 a1bd 8a21 08be 800b 21be
00000290: d3a4 95bc 3601 653c 79d0 75bd 7f65 f23c
000002a0: 0fb5 1bbe 5329 85bd 7132 2c3e e299 d3bc
000002b0: b0b5 ee3d ac8a 283d afbe 21be 7691 f63d
000002c0: 43d5 11bc f381 bbbc 4310 a93d 8ff3 a5bd
000002d0: 2c44 883d 33ca b4bd 8103 943e be66 d13c
000002e0: fb2b 3e3d 2a1b 763d 4ef3 27bd 1746 69bd
000002f0: 412a b8bd e2fd b63d 5156 7e3e 0f8d 89bd
00000300: 2b31 bebe 7b0f 57bd e75f 1bbf 1022 8cbd
00000310: ac91 c0bd 10ba 723b 4119 e7bd c0e1 57bd
00000320: 29a4 253d 526a ab3d 795a febd b0a5 05be
00000330: 66e8 1fbd 289c d63d 8909 e9bc 5e8b d53d
00000340: 5130 943d e670 393c 1448 353d 654d 15bd
00000350: ca9b 2abd 8c8c 87bc 575d 913c 5781 e9ba
00000360: 4019 0bbe f758 e8bc 5f13 fb3d 18ea 03be
00000370: f831 a83c 5508 023e f01f 743d 10ab b4bc
00000380: b97e bfbd c912 4d3d bf80 aebd b423 953b
00000390: e7c1 a6bd a4c7 a9bd bd18 a13d 9220 c63d
000003a0: 2ddd 8c3a 57f4 3c3e 2df3 a83d 9232 cfbd
000003b0: b812 e03c 4960 10be 2c27 a5bd 5a3a 8b3d
000003c0: 06d9 833d c20b bc3d d9e4 17be b0e6 823b
000003d0: b124 053e ebfb a0bd 7f89 803d 3ff1 d2bd
000003e0: c57f 793d 9657 3dbd 9525 edbd cb8c b23d
000003f0: 36f6 f73d 31d9 77bb fbb8 14be b0cf 4b3b
-0.019739809 0.14560376 -0.13186413 -0.17358062 0.07012218 0.012266717 0.028508693 0.11502697
0.026474252 -0.030256825 0.0074296803 -0.091036096 -0.2128392 -0.026495464 -0.0789901 -0.028699191
0.12935293 0.07622231 -0.07650918 -0.05958372 0.07618269 0.14470495 -0.06534472 0.12715973
0.010356917 -0.058659323 0.20120732 -0.15146676 -0.011078785 -0.02375283 -0.14892216 0.2101628
-0.031954445 -0.05746391 -0.18776925 -0.1578016 -0.063092664 0.16673122 0.05895142 0.05235759
0.0029700792 -0.113620974 -0.09334075 -0.21567975 0.06861658 0.022754055 0.40253466 0.069452584
-0.12828273 0.0076728375 0.17069794 0.13628861 0.008294311 -0.021141967 0.13368659 -0.06258398
-0.06397478 -0.11814488 -0.16296208 -0.035388794 0.01672835 0.1845553 -0.17947496 0.0689125
0.17725152 -0.07050726 0.04884325 0.022553558 -0.00012058106 0.15430968 2.3183187e-05 -0.07745131
0.025327694 0.09280509 0.22890583 0.13628905 0.05971846 -0.09558705 0.123864554 -0.30840638
-0.020341527 0.1806929 0.07213735 -0.08935525 -0.05432776 -0.0014278766 0.0943508 -0.10469087
0.021632208 -0.17047106 0.1303113 0.10162557 0.20098959 0.054620817 -0.1944948 0.016053151
0.116476774 -0.040793516 -0.18852925 -0.18645431 0.18548426 0.15022133 -0.06231239 -0.12349236
-0.14915134 0.0055732746 -0.061471406 -0.23241791 -0.1379177 4.8993854e-05 -0.050669156 0.15365659
-0.023787776 0.0983344 0.09998025 -0.11553787 0.016162349 -0.0012700692 -0.049548868 0.08204531
-0.111079656 -0.004587572 0.007993373 0.047619384 -0.062133007 -0.032791305 -0.011186348 -0.061810378
-0.066119835 -0.12850913 -0.1541765 0.051665798 -0.07429285 0.008267057 0.08572463 0.006364648
-0.088510364 0.12692696 0.046449184 0.10992837 0.21410364 0.18812133 0.15117207 -0.041001372
-0.18678127 -0.29799375 0.10748848 0.011114825 -0.14496017 -0.10331576 -0.06855583 -0.21133915
-0.043861747 0.120213814 0.06658308 -0.24400803 0.07263266 -0.44060904 -0.030099105 -0.052816793
-0.0063625057 -0.07876659 -0.13294044 -0.15727043 -0.01826707 0.0139773395 -0.06001327 0.029589413
-0.15205787 -0.065020226 0.16816117 -0.025830213 0.11655748 0.041147873 -0.15795396 0.12039463
-0.008900943 -0.022889113 0.08255055 -0.08103096 0.06653628 -0.08827629 0.28908923 0.025561687
0.04642866 0.0600845 -0.041003518 -0.05695161 -0.08992434 0.08935143 0.24837615 -0.06716358
-0.37146887 -0.052504998 -0.6069321 -0.068424344 -0.09402785 0.0037037171 -0.11284114 -0.052705526
0.04043976 0.08369888 -0.124196 -0.13051486 -0.03903999 0.10479003 -0.02844693 0.10426973
0.07235778 0.011318421 0.044258192 -0.036450762 -0.04165248 -0.01654651 0.017744703 -0.0017815036
-0.13583851 -0.028362734 0.12259554 -0.12882268 0.02053164 0.12698491 0.05960077 -0.022054225
-0.09350342 0.050066743 -0.0852065 0.0045513753 -0.08142453 -0.082900316 0.078660466 0.09674181
0.0010747068 0.18452583 0.08249507 -0.101170674 0.027352676 -0.1409923 -0.08064112 0.06798239
0.06437878 0.0918193 -0.14833392 0.0039947852 0.13002278 -0.078605495 0.06276225 -0.1029992
0.060912866 -0.046226107 -0.11579434 0.087182604 0.12107508 -0.0037818665 -0.1452369 0.0031099133

fc1.bias f4 [64]
00000000: 96d8 273e 4b6f 8ebc f31f c1bd aa10 38bd
00000010: 0c5a 193e 32d0 2cbd 4415 acbd a315 be3d
00000020: 8ca3 da3c c604 cdbd 8260 183e e41b d93d
00000030: f044 233e 74b2 de3d aef9 b4bc 330e 16bd
00000040: d532 9e3d 6cb9 03bd 458b 313d 90b3 d1bd
00000050: aeed 98bd 25e1 b83d 9b01 633c 9156 84bd
00000060: 5e3b 1fbe eb86 0b3e da3d 99ba f757 febd
00000070: 38fa 393e ef7e 073e 9fb5 afbd c5d5 00be
00000080: c72a 153e ec19 da3c 2202 6dbd b48b 9c3d
00000090: 8df7 48bd e285 b13c 5ec9 1fbd c8d5 e0bd
000000a0: b8d8 25bd 77fe a13b 3816 b7bd d53e 203e
000000b0: c0d0 fa3c 24a0 0cbd 04ee 583d 4e6e 35be
000000c0: 615f a0bd 087d f53d b8d9 f2bd 0523 a73d
000000d0: c3ac 38bc 6a1a 8bbd 6ff9 08be 9b66 653d
000000e0: 4076 b53d ce16 b6bc 375d 06be 4cd1 f0bc
000000f0: ed5a b23b 680d 093d 17e5 773d 7b42 933d
0.16391215 -0.017387053 -0.09429922 -0.044937767 0.14975756 -0.042190738 -0.084024936 0.092814706
0.026689313 -0.10010676 0.14880565 0.10601023 0.15944266 0.10873881 -0.022091713 -0.036634635
0.07724539 -0.032159254 0.04334571 -0.10239327 -0.07467209 0.09027318 0.013855363 -0.06461824
-0.1554999 0.13625686 -0.0011691407 -0.12419122 0.18161857 0.13232015 -0.08579563 -0.12581547
0.145671 0.026623689 -0.057863362 0.07643834 -0.049064208 0.021670286 -0.039010398 -0.109782755
-0.040489882 0.0049436647 -0.08939785 0.15648969 0.030617118 -0.03433241 0.052961364 -0.17717859
-0.07830692 0.119867384 -0.11857933 0.08160976 -0.011271658 -0.067921475 -0.13376401 0.056006055
0.08860445 -0.022227671 -0.13121496 -0.029396676 0.005442968 0.03346005 0.06052121 0.071904145

fc_value1.weight f4 [256, 64]
00000000: b1b3 fabb 17af ae3d 23ad 073d 64e3 e23d
00000010: 85af 3c3e 06f4 19bd 48d3 03bd a58e 293d
00000020: e7b0 833d 030b 73bc 56dd ac3b dd6b 94bd
00000030: a3c1 06be 4728 e03d 2bef 00be 6696 a2bc
00000040: 0cff c3bd 73c7 f7bc aeb8 4dbc d67d c53d
00000050: c3a4 6bbd bfcc afbd 3ff7 ad3d 9d7f b0bc
00000060: 378b febd d391 94bd 6a10 173e eeb4 c13d
00000070: 68bb 7e3d 4a80 9bbd eaaa c03d 2110 36bd
00000080: 0985 b03d 663a 713d d2e1 933d b221 ed3c
00000090: a23e bdbd 2b17 233e 02bb d53d c69f 76bd
000000a0: eb24 32be 05c2 a83c 5496 bd3d bbb8 0cbc
000000b0: df3c c23d 5640 2fbd 8cbe dfbd 8b7e 903d
000000c0: 5abe c6bd 5800 96bd dc85 53bd 3ff5 513b
000000d0: 45ae 7ebd 1eb6 a2bc 9148 533d d3cd 713d
000000e0: 6ebe adbd 01fd 03bd d4d3 96bd ea0b 22bc
000000f0: e99d a53d f661 d53d b881 09be fba4 303c
00000100: a848 1f3d e4b8 ec3d 37a8 a5bd 090d 683d
00000110: 048a c13d 3d78 ac3d b25a cabd bbe0 d83d
00000120: 6af5 53bd 62ee 99bd 8cf2 213b 8d46 db3d
00000130: 9133 96bd 6af6 e93c 7a50 c8bc 95df 143d
00000140: 1818 c63d 3d5e 053d 4238 b0bd bdb9 683d
00000150: 153b e13c cbc2 0ebd 4b19 71bc 20fb d6bd
00000160: cd4b 09bd 25a6 663d d213 c1bd b2a0 3abd
00000170: 6f69 903d 3025 cdbd f911 4a3d 1304 bbbd
00000180: 3bd9 9dbc 8a61 a33d 75ef ae3d 5480 aebd
00000190: 0b5f 223d 6455 623d 4a6a e03d b173 05be
000001a0: db28 39bc 54e2 823d 0615 13bd 5c9c b0bd
000001b0: ab59 0abe 908a 0dbe 61b0 e9bd d9fa 85bd
000001c0: 5f6a 83bd 18ce cbbd 6782 37bc f4a2 b33d
000001d0: 7a31 57bd 7d60 98bc 3145 b83c 040d 263d
000001e0: e433 d5bd e862 69bb 0d00 ff3d e7ce e33d
000001f0: 76be 11be aa25 dd3b 2f6a b9bc 6db2 4dbd
00000200: 7f5a 0abe b219 b5bd 2375 d03d beb6 bcbd
00000210: d415 6b3d 1e06 0fbd 0a87 47bd 38fa 823b
00000220: b4dc 523d 6263 eabd 888c 233d cf65 84bd
00000230: 0390 2d3d ec4b e63d c1a2 04bd c498 05bd
00000240: 1993 f8bd c350 973b 1b6f 7f3d 60fd e2bd
00000250: 85e8 f7bd fe60 b83c e70f 50bd 7351 0d3d
00000260: 1350 6ebd 9bcd 913d 3985 2a3e 82aa e23c
00000270: 03b4 84bd 15ff a73d a8c9 d83b 00c9 ff3c
00000280: 3964 fcbd 82b6 f1bc 81f2 3fbe d5d0 ab3d
00000290: 350a d63d d907 223d f368 023d 04f5 043d
000002a0: 7d40 fd3d 2fc2 1cbe 5dca 12bb 7570 17be
000002b0: 03ff 4b3c 3e5f 533c c56d 8c3c 1b9f d0bd
000002c0: 1f98 0dbe b4d8 36be 53a7 b7bd 2b90 cbbc
000002d0: 8428 14be 7988 cbbc e610 e5bd 00e1 91bd
000002e0: 9406 78bc 6cd6 d5bd 62c1 243d 9cd6 be3d
000002f0: 9110 afbd aa24 723c ad28 5b3d 389d 10bb
00000300: b84d 2fbd b955 23be 64f3 343c 71d2 b8bd
00000310: e3e0 3f3a c408 42bc 2077 06be c1fe 7ebd
00000320: f943 dcbd 9902 ab3c 05d2 88bc 26b5 df3d
00000330: 576c 5ebc 65de fb3d e7be 09be 1993 07be
00000340: a42a 31bd 64d1 85bd 61e9 b2bd f7ba 87bb
00000350: d9cc a9bc aa10 653d b9bb 8c3d 224f 83bb
00000360: 81ce 8a3d 5809 263c 30eb 773c e07c 583d
00000370: f4ff d03d ab0f 1dbe b080 db3d 39a5 09bc
00000380: ba10 903c 8225 adbd f9ab 463d d6c5 183d
00000390: 870a 9bbd a3ee 933d 77b2 be3d 7b3f 76bb
000003a0: 8b01 5dbd 71bd b23d 5969 30bd c1c7 a9bd
000003b0: 5748 9f3c a334 bb3d fe31 d83c 3e1d 81bc
000003c0: c118 ae3c ceb1 1b3d 9ba4 b5bd 4a66 5d3c
000003d0: 2796 813d 5128 b5ba 1387 173d 6f32 773d
000003e0: ce6c 42be 66d7 4dbd 67d4 bfbd 5e74 df3d
000003f0: 0a5d ddbd d559 29bd 8c1d 773c 4871 8abc
-0.0076508154 0.085294895 0.0331241 0.110785276 0.1842633 -0.037586235 -0.032183915 0.041395802
0.06430226 -0.014834168 0.0052754087 -0.07247136 -0.13159804 0.10945182 -0.12591235 -0.019847106
-0.09570131 -0.030246472 -0.012556238 0.09643142 -0.057530176 -0.08583974 0.08494424 -0.021545226
-0.12428897 -0.07254376 0.14752355 0.09458338 0.062190443 -0.075928286 0.09407599 -0.044448975
0.086191244 0.058893584 0.07220806 0.028946731 -0.09240462 0.15926807 0.104360595 -0.060210966
-0.17396896 0.020600328 0.092571884 -0.008588965 0.094842665 -0.042785965 -0.10925016 0.07055386
-0.097042754 -0.07324284 -0.05164133 0.0032037047 -0.062177915 -0.01986223 0.051582877 0.05903418
-0.08483587 -0.032223705 -0.07364622 -0.009890536 0.080867596 0.10419075 -0.1342839 0.010781522
0.03888765 0.115587026 -0.08088725 0.056653056 0.094501525 0.08421371 -0.0988058 0.10589739
-0.051747717 -0.07516171 0.002471122 0.10706816 -0.07334054 0.028559882 -0.024452437 0.036346037
0.09672564 0.032560576 -0.0860448 0.05681776 0.027493993 -0.034853738 -0.014715503 -0.10497117
-0.033519555 0.05631079 -0.094276085 -0.045563407 0.0705136 -0.100168586 0.049333546 -0.091316365
-0.019268623 0.079775885 0.085417666 -0.085205704 0.03964142 0.055257216 0.10957773 -0.13032414
-0.011301245 0.06390825 -0.03590872 -0.08623573 -0.13510768 -0.13822389 -0.11410595 -0.06541986
-0.06416773 -0.09951419 -0.011200524 0.08771315 -0.05253742 -0.018600697 0.02249393 0.040539756
-0.10410288 -0.0035611931 0.124511816 0.11123448 -0.14232811 0.0067488747 -0.02263364 -0.05021899
-0.13511084 -0.088427916 0.10178592 -0.09214543 0.057393864 -0.034917943 -0.048712768 0.0039971136
0.05148001 -0.11444737 0.039928943 -0.06464731 0.04237367 0.1124495 -0.032381777 -0.03261639
-0.12137432 0.004617782 0.062361818 -0.11083484 -0.121048965 0.022507187 -0.050796416 0.034501504
-0.058181833 0.07119294 0.16652383 0.027669195 -0.06479647 0.0820295 0.006615836 0.031223774
-0.123238035 -0.029505972 -0.18744852 0.08389441 0.104511656 0.039558265 0.03183837 0.032460228
0.12365816 -0.1530845 -0.002239845 -0.14788993 0.012450936 0.0129011255 0.017142186 -0.10186597
-0.13827561 -0.17856103 -0.089674614 -0.024849018 -0.1446858 -0.024845349 -0.11184864 -0.071229935
-0.015138287 -0.10441288 0.040223487 0.09318277 -0.08548082 0.014779249 0.05350559 -0.0022066366
-0.042798728 -0.1595067 0.011044357 -0.090245135 0.00073195825 -0.01184291 -0.1313138 -0.06225467
-0.10755152 0.020875262 -0.016701708 0.10923223 -0.013575635 0.12298278 -0.1345173 -0.13239707
-0.043253556 -0.06534079 -0.0873592 -0.004142161 -0.020727562 0.055924095 0.06871743 -0.004007236
0.06777669 0.010134064 0.015131757 0.052853465 0.10205069 -0.15338008 0.107179046 -0.008401209
0.0175861 -0.0845442 0.04850385 0.037298046 -0.07570367 0.07223251 0.09311383 -0.0037574458
-0.05395655 0.08727539 -0.043069217 -0.08290053 0.019443674 0.09140899 0.026391026 -0.015761014
0.021252038 0.038011365 -0.088692866 0.013513157 0.063274674 -0.0013821219 0.03699405 0.06035083
-0.18986818 -0.050254248 -0.093666844 0.10910867 -0.108087614 -0.041345436 0.015082728 -0.01689972

fc_value1.bias f4 [256]
00000000: 1e0a 2fbd 4049 b43d 9781 a13c ad96 283b
00000010: 4e79 9b3d 0391 563c 583d f93c 7d22 e5bb
00000020: 7549 17bd ea40 b93d ac4e 33be efe5 b63d
00000030: 6405 ac3d 63d8 4abd 0ef2 77bd d4a0 b1bc
00000040: 7919 8a3d 9bfe e8bd 2515 4cbd 8d8b 4fbd
00000050: 8a86 1f3e 4f9d ba3d 3bdf a3bd 4781 87bd
00000060: 9401 9ebc 0e44 913d 1cea 2e3d acd0 893d
00000070: 93b0 9e3d 54bb 56bd 8b0a 543c 79cf 4f3d
00000080: ffc2 bcbd 1a54 0bbd 810b 023d 3605 1ebc
00000090: 4f79 f9bd 6bdd ddbd d27c e5bc 61c0 bdbd
000000a0: 8685 b0bc 906d 42bc a7db c13d 1f53 f8bc
000000b0: 8ace 99bd 8464 02be 4fa3 7f3d 1a29 13bd
000000c0: f01a 16be 86bc e63d 91b6 973d 9a58 803d
000000d0: 973f 263e 60dc 8fbd 1e5d 1dbc efcf e13d
000000e0: d0ac 743d e8b7 32bd 1a49 213d 5e16 98bd
000000f0: aab6 7e3d 231c bc3d 833b 9b3d d71f 923d
00000100: d84e 323d fd53 2bbd 3e9c c0bd f006 a13c
00000110: 35ae 683d 0b01 e6bd 387b 323e c03a 4c3d
00000120: 7ff9 6dbd 90f2 a9bd 87b2 143d 222b 19bd
00000130: dac0 ea3c 7a53 0b3e 8b8f e93c 5c10 aabc
00000140: a613 d5bc cee5 91bd bb8a 053d 037d 0f3e
00000150: d332 0c3d 4491 c13c 13a1 cdbd cae0 583d
00000160: e984 e5bc 8fe4 6dbd 234b 163c 98d8 babd
00000170: 5678 ebbd 099c c4bd d64a b1bc eda4 62bd
00000180: e9b9 48bd cc4f 8d3d 4b0e b03b 3988 0c3d
00000190: b53f de3b 5737 733c 0a45 26be 887d 85bd
000001a0: 67da fbbd 5b9b 7e3c 521e 4cbd 4017 b7bd
000001b0: 1b46 f73d fc98 21bc b404 0b3d f995 443d
000001c0: 465a 90bd 86a2 f3bd 9518 7dbd 665b b23d
000001d0: 54fc b23d 83d0 88ba 1aac 60bd 76da d8bc
000001e0: 6a7e d0bd 6c82 d6bd dd71 cd3d 86a3 0c3e
000001f0: 7d46 0f3e ec10 23be fd4f 843d 53f2 47bd
00000200: 46d3 c1bd fd8e ef3d 74d5 e13d 837f 0bbc
00000210: 8505 713d be46 30bd 4eec 033e 0a08 92bd
00000220: 5a81 dfbc 77d8 693d ab56 50bd ccb1 313e
00000230: 7012 343d e8cc b9bd 45f8 ddbd 88d6 1cbe
00000240: f0a4 ec3d 23e2 723d 787c 8ebd 1c51 be3d
00000250: a616 5bbd 9256 b13d fc2f 66b9 5ebc 083d
00000260: 3b03 4abd 39c7 76bd 0f42 f6bd 2b2b db3d
00000270: 8830 2a3e 3d76 9b3d 694e de3d 051d b93c
00000280: a329 bfbd 0d28 b8bd 6190 a0bd 22b6 05be
00000290: c87b 1dbd 2611 e1bd f05e d3bd 7560 493d
000002a0: dc74 f3bd af7d dfbc 16b8 70bc cfe9 d23d
000002b0: 04e8 993d e83f e53d 2b9c f3bd 12a1 613d
000002c0: 4867 0abd 6cc3 ae3d b8bd 823d ea79 e3bd
000002d0: 90fd 213e 92df e8bd 52c4 82bd 6574 d7bd
000002e0: 9b0d 9f3c e7cf 9bbd 3cb8 febc 69ca 2b3d
000002f0: ddd5 8cbd ebb8 163e 4dd3 143d eb27 af3d
00000300: 0143 013c 661e 41bd bca3 e63d a9e7 703d
00000310: ae1d b53d 77bb f0bd ab01 9d3d cf40 c1bd
00000320: 8159 1d3e 0adb 413e fbe0 84bd bc2c 653d
00000330: acb1 a3bd 5eed ae3c 636e 413d 5614 03bd
00000340: 305c f93c 1e1a c63c 3f6f 03be 4088 853d
00000350: 18c0 cc3d b67c 5d3d e71d 03bd 6881 c5bc
00000360: 2082 073c fa56 c7bd 9ac4 9fbd f2ac 3c3d
00000370: 952a a4bd aea4 ec3d 886d 90bc 69e6 2abc
00000380: 67cd b33d 22e9 e2bc 4dc6 de3c 4538 8c3d
00000390: 18d1 193c 06d2 7f3c f221 2d3d 1051 aebd
000003a0: 12ae 08be c09b d63d 2c9c ffbc ef4a 0cbe
000003b0: e663 1d3e f67b 3e3d eb77 95bd 6730 e33c
000003c0: c7e9 56bd 95ba 133d 802e b5bd 3355 0f3e
000003d0: e8a2 98bb 1f5e 0a3e 38b4 acbd 4c3d 083d
000003e0: a311 2dbd 9558 5c3d a0f4 ca3d 230d 31bc
000003f0: 3604 ec3d 66cf e63c 848b 9bbd 8a9c 98bd
-0.042734258 0.08803034 0.019715114 0.0025724575 0.075914964 0.013096097 0.030424759 -0.0069926367
-0.03693529 0.090455845 -0.1751048 0.08930575 0.08399466 -0.04952277 -0.060533576 -0.021683134
0.0674314 -0.11376687 -0.049824852 -0.050670195 0.15578666 0.091120355 -0.08001562 -0.066164546
-0.019287862 0.070930585 0.042703733 0.06729254 0.077485226 -0.052424744 0.012941967 0.05073497
-0.0921688 -0.034015752 0.031749252 -0.009644797 -0.12181341 -0.10833248 -0.02801362 -0.09265209
-0.021548044 -0.011866942 0.094657235 -0.030313073 -0.07510097 -0.12733656 0.062411603 -0.03592787
-0.14658713 0.11266427 0.07407869 0.062668994 0.16235195 -0.07024455 -0.00960472 0.11025988
0.05973512 -0.043632418 0.039376356 -0.07426141 0.06218592 0.09185054 0.0757971 0.07134979
0.043532223 -0.041828144 -0.09404801 0.019656628 0.05680676 -0.11230668 0.17429817 0.049860716
-0.058099266 -0.08298218 0.03630307 -0.03739465 0.028656412 0.13606063 0.02851083 -0.020759754
-0.026010346 -0.0712391 0.032603007 0.14012532 0.034228157 0.023628838 -0.10040488 0.05294875
-0.028017478 -0.0580793 0.009173187 -0.09123343 -0.11497562 -0.09600074 -0.02164213 -0.055333067
-0.049005423 0.06899986 0.0053727976 0.0343096 0.006782497 0.014844737 -0.16237274 -0.06518084
-0.12297516 0.015539969 -0.049833603 -0.089399815 0.120739184 -0.0098631345 0.033940032 0.047994588
-0.07048468 -0.11896233 -0.06179102 0.08708839 0.08739534 -0.0010438118 -0.05485163 -0.026471358
-0.101803616 -0.10474095 0.10031483 0.13734254 0.13991733 -0.15924424 0.06460569 -0.048815083
-0.09464125 0.11697195 0.11027041 -0.008514288 0.058843154 -0.043036215 0.12883112 -0.071304396
-0.02728336 0.057091203 -0.050863903 0.1735298 0.043962896 -0.09072286 -0.10838369 -0.15316212
0.11554897 0.059297692 -0.06957334 0.09292814 -0.053488396 0.0865909 -0.00021952385 0.033382766
-0.049319487 -0.060248587 -0.120243184 0.10701593 0.16620076 0.075909115 0.10854799 0.022596845
-0.093341134 -0.08992014 -0.07840038 -0.1305776 -0.038448125 -0.10989599 -0.10320842 0.049164254
-0.118875235 -0.02728161 -0.014692327 0.10298502 0.075149566 0.1119383 -0.11895021 0.05508525
-0.033789903 0.085333675 0.06383842 -0.11107238 0.15819383 -0.11370768 -0.063851014 -0.10520247
0.019415667 -0.076080136 -0.03109371 0.04194108 -0.06876729 0.14718978 0.036334325 0.085525356
0.00788951 -0.04714813 0.112616986 0.05881468 0.088435516 -0.11754506 0.07666334 -0.094361894
0.15366174 0.18931213 -0.06488224 0.055950865 -0.079928726 0.02135342 0.047224414 -0.032001816
0.030439466 0.024182376 -0.12835406 0.06520128 0.099975765 0.05407401 -0.03201094 -0.024109557
0.00827077 -0.09733386 -0.07801171 0.04606337 -0.080159344 0.11554848 -0.017630354 -0.010430911
0.08779412 -0.027699057 0.027194167 0.0684667 0.009388231 0.015614038 0.0422687 -0.08511555
-0.13347653 0.10478926 -0.031202398 -0.1370046 0.1537014 0.046504937 -0.07298263 0.027733041
-0.05246904 0.03606661 -0.0884676 0.13997345 -0.004658092 0.13512467 -0.084328115 0.033261582
-0.042253148 0.053795416 0.0990994 -0.010806355 0.11524241 0.028175067 -0.0759497 -0.074517325

fc_value2.weight f4 [1, 256]
00000000: 8a37 113e 9251 e63d 1625 b7bd b061 8cbd
00000010: 14ea b5bc 7641 073e 35ee f3bd 3257 1f3d
00000020: c44a 75bc 9206 2d3d e6cb e8bc 6692 f4bd
00000030: a6d2 e33d 0084 5d3e 46d3 0ebe 41a9 d83d
00000040: 99ec 35be 878a 4dbe ca9d 12be b7d4 613d
00000050: b75e e43c 073d a13d ea02 e43c ae38 963d
00000060: 922d d03d e71c 11be 2345 02bd a128 e6bd
00000070: 8f2c 133e c7aa ed3d fd92 cc3c 7969 eabc
00000080: cf34 3ebe a02a 05be ecdb 92bd 0d11 163e
00000090: b421 ecbd 02ca 92bd cfac 173e 0aca e23d
000000a0: 1601 f7bd 4bfd b33d b691 d13d 674c 753d
000000b0: 8a01 b8bd c481 14be dd00 333a 1fc9 0bbe
000000c0: ee10 2bbd ba02 9f3d 5941 1b3e 3726 1cbd
000000d0: e57f 393d 0726 05bd 927f 75bc 2d6a 163e
000000e0: 2bae 573d 1058 75bd 11e0 f3bd 99de 6abd
000000f0: c3a6 61bd c632 863d ad0b fe3d d40d c33d
00000100: 5cac f5bd fb7f 9dbc ef1c 31bd 9068 ff3d
00000110: e188 c43d 244a 56be a645 903d e8ad 8cbb
00000120: b159 f93d 34db 7d3d 1a82 37be ba15 a43d
00000130: 5387 ebbd c52b 613d d01a 36bd cc06 83bd
00000140: e702 153d 1a37 e83d 31c2 f13d 442f f43d
00000150: 60aa 0e3d f17a 843d e754 04bc 49ab 4f3d
00000160: 1e76 f63d 9d0a 593d 85f5 153e fd65 aabd
00000170: 33a6 2ebd 5477 22be 053b 033e 4650 7cbb
00000180: 699c ca3c 2f87 483d 1c36 0e3d df13 f8bd
00000190: d5a5 b7bd 2e36 203d 7fdf e0bc ae37 86bd
000001a0: ee87 99bd 0f51 223e 3951 f13d 7f6c 74bd
000001b0: 558e 033d a540 013e ce94 513d c886 54bd
000001c0: 8591 cc3d 3c42 16be aaf2 603d 370b d33d
000001d0: ce88 09bd d579 2cbd 5ac8 533d 64cd 373e
000001e0: 4538 bcbb 12bb bd3d 1cac a03d bcc4 133d
000001f0: 9be6 e63d 6ed4 12bd 1ca1 623d 4ca4 fdbc
00000200: f9c3 003e 6693 cd3d 3418 fa3d cfc7 37be
00000210: 38ab 733d c22a 183d 32c1 8a3d 4661 64bd
00000220: d675 a8bd 266c 01bd 401d 2e3d 9929 b43d
00000230: a63e d9bd cd69 b5bd 8e3c 38bd 6708 4dbd
00000240: a69d 593d cc17 243d f4fd 1abc a8de a0bd
00000250: d3e1 813d a4a0 793d 6b4f f9bc c5ef 853d
00000260: 5a6f 9b3d 168b 193d d9dd 28bb d4ab e83d
00000270: 8486 a23d 36f9 67bc efdb 463d 62a0 cb3d
00000280: 8dbd 56bd b6f8 2c3c 99b1 b5bd 037e 49bd
00000290: 3b72 30be 0342 1bbe 2b92 0abe 180a df3d
000002a0: cee4 47bd 552c 39bc aaa1 02be 76e9 46be
000002b0: 2563 0f3e 0429 243d 9dfd 01bd 2379 f83d
000002c0: 089c f93c 063a f53d 7efd 85bb 0f27 34bd
000002d0: d08d 7f3d 4952 cfbd f341 b7bd 11f5 bebd
000002e0: a6b1 f7bd 83ec 133c 87c2 993d 1f11 2b3d
000002f0: a4ab 02be 87dd 8f3d 4cb4 f53d 7b17 493d
00000300: 6061 dfbc bdfa 903d fbae 8c3d 24fc a8bd
00000310: 7fd6 f53d f435 1e3e 943d ab3a 59fc 473e
00000320: fcaf c63c 2555 093e 1927 c7bd c495 0d3d
00000330: 3ad4 a8bd e243 4839 d41f fe3d ed7a 7bbd
00000340: e646 d23d db0e 92b9 41ac 0fbe 66ac a93d
00000350: a0de 5b3d 19c2 ccbd eb5e 253d d47d 2ebd
00000360: 09c4 c1bd 6b7c 10be 2888 55bb d2de 8c3c
00000370: e838 ddbd 9ca8 323d 1682 0fbd 3f57 393e
00000380: 4246 723e 785f e43d 2f02 143e 0062 d03c
00000390: f31e 11bd 0b29 15be 157f b43d fdc3 febd
000003a0: 3bf8 d5bd c2ae 3a3d 0138 ef3d 3c73 8dbd
000003b0: 32f9 113d e5de 01be 68ca 80bc 11e1 8a3c
000003c0: fab1 883c 04e8 50bd 3d39 0d3d 01ec cf3d
000003d0: cacb d2bc 2998 713d 4b85 79bd 6204 fb3d
000003e0: a36c 17bd 05e0 4c3e 4308 873d 2fc9 4cbd
000003f0: bab1 1d3d 507e 8c3d a9f2 fa3d 45c8 71be
0.14181343 0.11246027 -0.089426205 -0.0685457 -0.022206344 0.13208565 -0.11910669 0.038901515
-0.014971439 0.042242594 -0.028417539 -0.11941986 0.111241624 0.21632385 -0.13947782 0.105791576
-0.17766036 -0.20072375 -0.14318004 0.0551345 0.027877195 0.07872968 0.02783342 0.073350295
0.10164942 -0.14171182 -0.031804215 -0.11238218 0.14372467 0.11604839 0.024972433 -0.028614746
-0.18574832 -0.13004541 -0.07170853 0.14654942 -0.11529866 -0.07167436 0.14812015 0.11073692
-0.12060754 0.08788546 0.1023287 0.059887316 -0.089846686 -0.14502627 0.0006828437 -0.1365094
-0.041764192 0.07764192 0.15161647 -0.038122382 0.045287985 -0.03250697 -0.014984028 0.1468894
0.052656334 -0.059898436 -0.11907972 -0.057341192 -0.055090677 0.06552653 0.12404571 0.09524122
-0.119957656 -0.019226065 -0.043240484 0.124711156 0.0959642 -0.2092672 0.070445344 -0.004293192
0.121753104 0.061976627 -0.17920724 0.080119565 -0.115004204 0.054973383 -0.044459164 -0.06397781
0.03637972 0.11338635 0.11804617 0.11923078 0.03483045 0.06468762 -0.008076883 0.05070046
0.12034248 0.052988637 0.1464444 -0.08320234 -0.04263897 -0.15865833 0.12815483 -0.0038499995
0.024732785 0.048957046 0.03471957 -0.12113165 -0.08967177 0.03911417 -0.027450321 -0.06553589
-0.0749663 0.15851234 0.1178307 -0.059673782 0.03211816 0.12622316 0.0511673 -0.05188635
0.09988693 -0.14673704 0.054918922 0.103048734 -0.033577733 -0.042108376 0.051704742 0.17949444
-0.0057440125 0.092641965 0.07845327 0.036076292 0.11274453 -0.03584712 0.055329427 -0.030962132
0.12574758 0.1003788 0.12211648 -0.17947315 0.05948946 0.037150152 0.0677513 -0.05575683
-0.082256004 -0.03159728 0.042508364 0.087969966 -0.10607652 -0.088580705 -0.044979624 -0.05005684
0.05312886 0.040061757 -0.009459961 -0.07854968 0.06341901 0.060944214 -0.030433377 0.06539873
0.07589598 0.03748616 -0.0025766997 0.113608986 0.07935813 -0.014158538 0.04854959 0.099427
-0.052426863 0.010557344 -0.08871765 -0.04919244 -0.17231075 -0.151619 -0.13532321 0.10890597
-0.04880219 -0.0113020735 -0.12756982 -0.19424996 0.14002664 0.040078178 -0.031736005 0.1213248
0.03046991 0.11973958 -0.0040890565 -0.04398256 0.062391102 -0.101231165 -0.08948126 -0.093240865
-0.120944306 0.009028557 0.07507806 0.041764375 -0.12760788 0.07024675 0.119972795 0.04909466
-0.027268112 0.070790745 0.068693124 -0.08251217 0.120038025 0.15450269 0.0013064616 0.19529857
0.024253838 0.13411386 -0.09724254 0.034566656 -0.08243604 0.00019098775 0.124084145 -0.061396528
0.10267429 -0.00027858358 -0.14030553 0.082848355 0.05367911 -0.09997959 0.040373724 -0.042600468
-0.09461219 -0.14109962 -0.0032582376 0.017196093 -0.1080187 0.04361783 -0.03503617 0.18099688
0.23659614 0.11151022 0.14453958 0.025437355 -0.035429906 -0.14566438 0.088133015 -0.124397255
-0.10447737 0.04557682 0.11680604 -0.06906745 0.03563804 -0.12682684 -0.015721515 0.016953023
0.016686428 -0.051002517 0.034478415 0.10152436 -0.02573194 0.058983 -0.060918134 0.12256695
-0.03696884 0.20007332 0.06593373 -0.04999655 0.03849957 0.0686003 0.12253315 -0.23611553

fc_adv1.weight f4 [256, 64]
00000000: a8fb 8b3d e999 01be 2ba1 da3c b46c 5dbc
00000010: 5447 c6bd fb2f d73c ecbf 4dbd 5b04 cabd
00000020: 7591 053e 8e4b 8f3d 3e4e a43d 0058 f43d
00000030: 55ec b6bd 4965 6bbd 774b 8a3b 9c30 a13d
00000040: b1f2 70bc c86b f4b9 f642 f13d 8de0 a4bb
00000050: c82e 653d fa9a de3c 6e5e b0bd 1b2d 843d
00000060: 9e96 9d3d 18c9 b2bc 5bba f1bd c103 b13d
00000070: e9e8 d43d 0201 513d c40c 173c a31c 8a3d
00000080: 3077 7c3c bb17 75bd 80ad 4cbd 77ca 88bd
00000090: 7def 883d b19d 94bd dd61 0c3d 2ca8 9abd
000000a0: 0868 d1bd 8b00 e13d 1bca d8bd 2055 be3c
000000b0: a72d a23d bbdb 8bbb c527 533d 5034 f7bc
000000c0: c5b2 aabd 1269 1dbd c0d7 2abd 0df7 55bd
000000d0: 6440 b6bd 7a3f 4dbc 6a18 ee3d 2072 673d
000000e0: dfc9 e03c 94bc b4bd bd2c 18bc d131 073d
000000f0: 0072 b23d 6573 20bd 02dc 5a3d 6110 973d
00000100: dd78 febc 2a09 fcbd a991 9a3d 4c4c aa3d
00000110: 3360 d0bd 5012 ba3d ee69 f13c a3e4 01be
00000120: 4a2d b1bb 99ec ac3d 7563 913a d90e d6bd
00000130: b5c7 5ebd 7635 7b3d cf1a af3c 6201 b53d
00000140: 3cdc ad3d 3bb0 933d 2ceb 5ebd ba19 1b3d
00000150: bddd ab3c d734 9d3d 2d4b e73d 214a 65bd
00000160: 9cc4 d53d 4186 85bd 492c 643d 10f3 e3bb
00000170: 6c58 b23d 4071 e1bc 1420 b73c b787 1f3e
00000180: 82a0 84bb eb55 0dbd 5700 86bd 6174 343d
00000190: aebe d53d c3e7 9ebc e1d0 a2bc ab25 ed3d
000001a0: 3735 da3d 7ec8 7d3d c2f1 fcbc c5dd 59bd
000001b0: 927e 90bd 72f6 babd 3116 7bbc faab 8cbc
000001c0: e7ec abbd 844e d8bc 99e9 253c 5ae8 2ebd
000001d0: 134a d8bd bc8d 3d3e 73ee f2bd be7f 283d
000001e0: 0747 553d e861 28be ebfb 0cbd 478e 34be
000001f0: 21f7 e63d 88b0 58bd 925b 473d 12cc ff3c
00000200: 3f99 46bd 823f d53c ffe5 18be b4f9 d6bd
00000210: ed3a dfbc ffa5 bd3d d031 96bd d50c 073d
00000220: ba47 d03d 1095 08bd 485f 42bd 021d dcbd
00000230: 940c 66bd a342 e93d 039b 91bd 2f19 253e
00000240: 6366 f8bd f35f b03d 70b8 51bb ff40 95bc
00000250: 0b58 f3bd 85fd bebd 1d5d c7bd 124f dcbd
00000260: 4658 8bbd 68ee c03d 106d 1cbe 9c9e a73d
00000270: 0806 c93c 6a24 2d3c 77ac df3b 33d9 58bd
00000280: 7b19 3e3d 686d 953d 8cc4 223d 8762 873c
00000290: de6a f03d 1f02 93bb 887c 9cbd 0474 933d
000002a0: e8f1 80bd b2b7 b33d 0839 1b3c 3eaa 273d
000002b0: dcaf 843c 5f1c c13d 883e 673d 6b5d 923d
000002c0: 9054 93bd 6823 df3b 0e13 dc3d 0acc 723d
000002d0: a344 8dbd cc38 8a3d 14ea c3bd 6524 993d
000002e0: a889 a7bd 81d4 bdbd 3ee9 a53d 6460 01bd
000002f0: 0189 50bd e090 13b9 bea7 ca3d aee3 7f3d
00000300: f2d3 4abe 70f4 24be 348e 58bd a784 ba3d
00000310: 16e1 24be 7c89 c7bd 327e 20be e1e5 22bc
00000320: 215f 613d bfa7 a33c 4360 28bd d595 123d
00000330: a7c6 90bd 4f71 2fbd 1799 8a3d f05b c7bd
00000340: f315 6cbd 3019 00be 8a74 81bd 9cef ec39
00000350: 19df 183d c360 3a3d 0b73 56bd 563b 71bc
00000360: efcb 0cbe c372 cdbd 6995 c3bb 5321 603d
00000370: a9e7 07be 64a2 bb3d d0a0 23be ec84 68bd
00000380: 494f 29bd d4cc c53d 1462 fcbc d7de b93d
00000390: 375c 12bd 2607 2dbc 5904 383c 7104 a4bb
000003a0: abeb f3bb f8e5 eabc a207 183c ebc2 4ebe
000003b0: d8e6 a43d 627b b4bd 4c46 99bd 7e0f 3dbe
000003c0: 2855 1ebe d187 2d3d 93b4 1a3d a844 253d
000003d0: 3e88 4dbe 730f 57bd c1f1 eeb9 be17 15be
000003e0: a3c6 79bd c86d 2e3d 7b64 3dbd 4e8c 28bc
000003f0: 8e25 20be c42f 4b3d 9155 103d f817 a23d
0.06835109 -0.12656368 0.026688179 -0.013514686 -0.096815735 0.026267996 -0.05023186 -0.09864112
0.13043769 0.06996833 0.08022736 0.11930847 -0.089317955 -0.05746964 0.004220422 0.078706
-0.0147063 -0.0004661961 0.1178035 -0.0050316514 0.055952817 0.027173508 -0.08611761 0.06453916
0.076947436 -0.021824405 -0.118031226 0.08643294 0.103959866 0.05102635 0.009219352 0.06743743
0.015409276 -0.059837084 -0.04997015 -0.06679242 0.06686304 -0.0725664 0.034273017 -0.075516075
-0.102249205 0.10986432 -0.105854236 0.02323395 0.07918864 -0.0042681373 0.0515516 -0.030176312
-0.08334879 -0.03843028 -0.04170966 -0.05223756 -0.08899 -0.012527341 0.1162575 0.056505322
0.02744001 -0.08825031 -0.00928801 0.033006493 0.0871315 -0.03917255 0.053432472 0.07376171
-0.031063491 -0.123064354 0.07547314 0.08315334 -0.101745985 0.09085524 0.029469457 -0.12684874
-0.00540701 0.08443565 0.0011092263 -0.10452051 -0.054389674 0.06133028 0.021375088 0.088381544
0.08489272 0.07211348 -0.054423496 0.03786633 0.020979756 0.07676094 0.112936355 -0.055978898
0.10437891 -0.065197475 0.055706296 -0.0069564655 0.087082714 -0.027519822 0.022354163 0.15579115
-0.0040474543 -0.034505766 -0.065430336 0.0440563 0.1043676 -0.019397622 -0.019874992 0.1157945
0.10654681 0.061958782 -0.030876998 -0.05319001 -0.07055391 -0.09129037 -0.015325115 -0.017171849
-0.08394795 -0.026404627 0.010126495 -0.042702056 -0.105610035 0.18511099 -0.11861887 0.04113745
0.05206969 -0.16443598 -0.034419935 -0.176324 0.11277605 -0.05290273 0.048671313 0.031225238
-0.04848599 0.02603126 -0.14931487 -0.10496846 -0.027249778 0.09260177 -0.0733372 0.032971222
0.10169931 -0.033345282 -0.04745415 -0.1074772 -0.05616434 0.11389663 -0.07109644 0.16122888
-0.12128904 0.08612051 -0.0032000802 -0.01821947 -0.11882027 -0.09325699 -0.09734557 -0.10757269
-0.06803946 0.094204724 -0.15275979 0.08184549 0.024539009 0.010567764 0.0068259793 -0.052941512
0.04641102 0.07296258 0.039738223 0.016526474 0.11739133 -0.004486337 -0.0764094 0.071998626
-0.0629614 0.087752715 0.0094740465 0.04093384 0.016197138 0.094292395 0.05645612 0.07146724
-0.071938634 0.0068096407 0.10745822 0.059276618 -0.06897857 0.067491144 -0.09566131 0.07477645
-0.08180553 -0.092690475 0.08101128 -0.031586066 -0.050911907 -0.00014072983 0.098952755 0.06247299
-0.19807413 -0.1610887 -0.05286999 0.09107333 -0.16101488 -0.0974302 -0.1567314 -0.009942503
0.055022363 0.019977449 -0.041107427 0.035787422 -0.0706914 -0.04283267 0.06767481 -0.097343326
-0.05763812 -0.12509608 -0.06321056 0.0004519195 0.037322138 0.045502435 -0.052355807 -0.014723619
-0.1374967 -0.10031655 -0.005968739 0.05471928 -0.13271965 0.09161833 -0.15979314 -0.05676739
-0.041335378 0.096582085 -0.030808486 0.090757065 -0.035732474 -0.010560786 0.011231505 -0.0050054123
-0.0074438653 -0.02867411 0.009279164 -0.20191543 0.080518425 -0.08812596 -0.07484111 -0.18462941
-0.15462172 0.042365853 0.037769865 0.04034868 -0.20071504 -0.052504968 -0.00045575018 -0.14559838
-0.06098045 0.042585164 -0.046238404 -0.0102873575 -0.15639326 0.0496061 0.035237852 0.07914728

fc_adv1.bias f4 [256]
00000000: c0dd 493c e9b6 803d 31a3 df3d 7e0c 06bd
00000010: b7e1 d33d 5fd2 b8bc a8c6 d0bd d309 87bd
00000020: 7b42 ecbc 7f97 dd3d 0571 02bd 6213 373d
00000030: 0dd0 1abd 9937 3fbd 1d78 9d3c c601 a33d
00000040: 0353 1dbd 71cd c53d ddc7 e83b e13a 9e3b
00000050: bb4f f2bb 691b 773b 45ac 2b3d 8a00 8dbd
00000060: 7fe7 5d3d e922 593c 04c0 28bd 3392 8a3d
00000070: f3a6 833a 423a ab3d ca7f 983d ee49 a53d
00000080: a4e0 a23d b34b e4bd 5927 b23d 8b93 133e
00000090: b645 9a3d 4d55 c23c 6663 75bd bc35 c6bd
000000a0: 7609 b43d e345 073d aa9a 7fbd e551 bc3d
000000b0: e83a 5cbd 2675 2f3d f238 f0bd d289 3ebd
000000c0: b9c5 bdbd 56ac 3fbd 714b 943d d4c7 1a3c
000000d0: b614 a9bd e62d b9bd fc74 8bbd ddd4 c2bc
000000e0: 922d bd3d 0d7d af3d eab1 9a3d f806 34bd
000000f0: f458 1bbd 10c0 373d e70f 803c 04e0 b13d
00000100: 15a7 13be 2379 bf3d d565 0abe 05e7 c83d
00000110: 69ec e2bd a396 cebd 28ed a73d d495 52bd
00000120: dd79 7fbd c6b0 e33c 52dd 633c 63b1 59bd
00000130: 8450 cabd 1cf3 b4bd b9ae f93d 8f07 95bd
00000140: dcb2 ac3c b4a1 67bd fa58 24bd fd56 e43d
00000150: eeb9 37bd 3df1 c53d 5922 203c efea c4bd
00000160: e563 b5bd eb54 efbd 4fd6 013d b620 12bd
00000170: f083 bc3d da93 e83c b69f a53d 0ee0 f2bb
00000180: f7a8 cebd 06e6 3c3d 78b4 81bd 6a3e 77bb
00000190: 6ed0 dabd 5080 203c ff1d 75bd e58f f23a
000001a0: 6087 3637 7430 0f3d 581a 45bc 8ede d0bd
000001b0: c5da 77bb aabf 17be af82 d0bd 14ae 4b3a
000001c0: 31b0 b23d 7882 9ebd 2837 fabc 8e98 293c
000001d0: b5ec 733a 9b6c 343b ed47 c1bd 3822 f6bd
000001e0: a23c 81bd 3a1e 12be 38e7 52bd 5ee7 3ebd
000001f0: d3b7 7d3c 7974 9f3d 1548 91bd 9578 09bd
00000200: c22f 30bc 5e5f a8bd f51c bfbd d317 9f3a
00000210: 4a96 b3bd c103 c3bc f2a0 14bd 3d28 09be
00000220: 0126 753d 3bae 58bc 6e6d 8dbc d53f 5cbc
00000230: 1b91 d33d 998d d4bd 816c ccbc 99f8 33bb
00000240: 52d3 9dbc 47b5 cabd d702 aabd d19a bf3d
00000250: 1fb3 debd daac cfbc 4e4d 963d 77f2 c0bd
00000260: 85cb 4b3d 1874 063e d4b9 0fbd 2da5 9ebd
00000270: 0b78 e9bc e6a7 4d3d c079 dc3d d5ba 00bd
00000280: dbe3 c4bd 4164 c13d 65a0 58bd e84c 303c
00000290: eed1 b73d 89b4 5cbb 6660 083e 300a cfbd
000002a0: 0f7a edbd 02d9 cc3d fcee b13d 4e9b eebc
000002b0: 7f49 ac3d 3de1 b8bc 9497 fdbc 5fa8 96bd
000002c0: 68c6 c73c 1520 db3d 1921 b93d 6ab1 9d3d
000002d0: 7aff ce3d f14d c83d 10b4 113d add9 a6bd
000002e0: 8627 9bbd 5116 b63d 6495 acbd ec9a b2bd
000002f0: 9de2 9a3d c45f 14ba 3fa0 1fbb e59f 633d
00000300: c3dd b43d da5a 1d3d c78a 3c3d dc63 a03d
00000310: 0174 adbd 737d 11bd ff34 0d3e 041f 18bd
00000320: e791 b6bc 7745 ecbc 9d69 013e d34d f73c
00000330: 1efc 6c3d 426b 07bd 5242 053d 7699 a03d
00000340: 10b3 20bc 4c47 f4bc eb14 e23d 038c 393d
00000350: 3787 34bb 52a5 83bd 4a6d b2bd 6a07 d23d
00000360: b053 483d 7f45 8a3d 96a3 d53d 364f e4bb
00000370: 939f 6d3d 4ebe 8f3d 7792 da3d 9a03 91bc
00000380: 904e ea3d 2003 d93d 426d 22bd a1e5 51bd
00000390: 4f68 ab3d cbd3 04bd c912 943d fbf1 9ebd
000003a0: 03de 573c 9c37 6abd f95f 233e 92b3 903d
000003b0: 755c d83a 6981 c9bc a72f e53c e215 423d
000003c0: 726b 54bd f796 4e3d abad 023e 5340 693c
000003d0: a981 7dbd 0a40 593d f5f6 893b 83ad 46bd
000003e0: 1d30 103d 1fd8 433d 0e1e ad3c 3ef0 1c3d
000003f0: c307 50bd 3193 bbbd adaf 11bd b4e1 b03d
0.012320936 0.06284887 0.10919798 -0.032726757 0.10345786 -0.02256125 -0.10194141 -0.06593671
-0.028840294 0.10819911 -0.031846065 0.04469622 -0.03779607 -0.04668388 0.019222314 0.07959323
-0.038409244 0.096583255 0.0071039037 0.0048287963 -0.0073947585 0.0037705547 0.041912336 -0.068848684
0.05417585 0.013252952 -0.041198745 0.067661665 0.0010044262 0.08360721 0.07446249 0.080707416
0.07953003 -0.11147251 0.08698911 0.14411752 0.075328276 0.023722315 -0.059909247 -0.09678218
0.08790867 0.033025634 -0.06240336 0.09195308 -0.053767115 0.04283633 -0.117296115 -0.046518154
-0.09266228 -0.04679521 0.07240952 0.009447057 -0.082559034 -0.090419576 -0.068094224 -0.023783142
0.092372075 0.085687734 0.07553466 -0.04395196 -0.03792663 0.0448609 0.015632583 0.08685306
-0.14419205 0.09349277 -0.13515408 0.098096885 -0.11080248 -0.100873254 0.08199531 -0.05141242
-0.062372077 0.027794253 0.013907747 -0.053147685 -0.098786384 -0.08835432 0.12191529 -0.07276832
0.02108138 -0.056550696 -0.040123917 0.11149404 -0.04485505 0.09665153 0.009773814 -0.096151225
-0.08856944 -0.11686119 0.03169852 -0.035675727 0.092048526 0.028390814 0.08087103 -0.0074119633
-0.10090821 0.046117805 -0.0633325 -0.003772641 -0.10684286 0.009796217 -0.05984306 0.0018506019
1.0879565e-05 0.034958318 -0.012030207 -0.10198699 -0.0037819606 -0.14819208 -0.10181176 0.0007769775
0.08725012 -0.07739729 -0.030543879 0.010351313 0.00093049865 0.0027530554 -0.09437547 -0.120182455
-0.06310393 -0.14269343 -0.05149004 -0.046607368 0.015485722 0.07785887 -0.07093827 -0.03356226
-0.010753574 -0.08221315 -0.09331695 0.0012137837 -0.087689 -0.023805501 -0.036286302 -0.13394256
0.059850696 -0.0132251335 -0.017264094 -0.013442953 0.10330411 -0.1037857 -0.024954082 -0.0027461408
-0.019265804 -0.09897857 -0.08301323 0.09355701 -0.108740084 -0.025350977 0.073389634 -0.094212465
0.04975464 0.13130224 -0.03508933 -0.077463485 -0.028499624 0.05020895 0.107654095 -0.031428177
-0.096137725 0.0944295 -0.05288734 0.010760523 0.08975588 -0.0033676943 0.13318023 -0.10109365
-0.115955465 0.100023285 0.08688161 -0.02912679 0.08412456 -0.02256834 -0.030956067 -0.07356333
0.0243866 0.106994785 0.09039516 0.07699855 0.10107322 0.09780491 0.03557211 -0.08146987
-0.07575898 0.08890975 -0.084269315 -0.08720955 0.07562754 -0.0005660022 -0.0024356989 0.05557241
0.0883136 0.03841672 0.046030786 0.07831547 -0.084693916 -0.03552003 0.13789748 -0.037138954
-0.022286369 -0.028841717 0.12637945 0.030188477 0.057857625 -0.033061273 0.03253395 0.0784177
-0.009808317 -0.029819153 0.11039146 0.04529954 -0.0027546415 -0.06428017 -0.087122515 0.1025532
0.048907936 0.067515366 0.10431592 -0.0069674505 0.05801351 0.070187196 0.10672467 -0.017701913
0.11440766 0.10596299 -0.039654978 -0.05124438 0.08369505 -0.032428544 0.072301455 -0.07760998
0.01317549 -0.05718194 0.1595458 0.070655 0.0016507047 -0.02459784 0.027976824 0.04738415
-0.05186028 0.05043694 0.12761562 0.0142365275 -0.06189123 0.053039588 0.004210348 -0.048505317
0.035202134 0.04781353 0.021132495 0.03831505 -0.050788652 -0.09158934 -0.035567928 0.086367995

fc_adv2.weight f4 [4, 256]
00000000: ac74 243d c275 acbd 8f9b 35bb 3380 c4bd
00000010: 4459 acbd 4826 debd f684 c6bd 4d3e f4bc
00000020: f6b0 723d 1f5f 2ebd 8999 fbbb fc53 7a3d
00000030: dbfa 603d 5321 8a3c 2346 77bd be9e 293d
00000040: 4979 183d 977c fabc a076 003e 2944 313d
00000050: b462 4b3d f3e1 e93c e746 633d 13a6 fabc
00000060: 7047 ac3c a592 fdbc 3eca 5a3d f6ab 593d
00000070: 5267 19bc 6448 e73a 01d6 703c 362a 2e3c
00000080: 4ff0 96bd d5cb 083e 3d38 e13d 730e d13c
00000090: 7209 63bd ea0e e13c 485a dfba f3a1 4ebd
000000a0: 6c68 00bc e325 0cbe be80 983d e69f 923b
000000b0: 6557 7bbd 7353 1b3d a404 843d 1958 c0bd
000000c0: ad2c 2a3d 38d6 1dbd 858f 2c3d 8e61 babd
000000d0: 0880 86bc 1b58 10bd 30ce a83d 6b37 9d3c
000000e0: d2c4 c23c ba9f 943d c30b dc3a 651b 81bd
000000f0: 66b6 bf3d a045 9abd f1b7 ebbc 954c 783d
00000100: fe8d e6bd a6dd 243d 7dcc 0fbc 540a d93c
00000110: 2710 c8bd e51e e83d e14b 9dbb add7 85bc
00000120: 9b0f e63d fb21 853c 6d0b 5d3d f6fd 8a3b
00000130: 9068 563c f424 f1bc 6345 6b3d 5b8d 2cbd
00000140: 1f6d 2ebd d437 d7bd 4dde 353d fa5c 52be
00000150: 9b44 8ebd d5e0 e33c 2b8e 883d 315b 34be
00000160: 73b1 f63d 2e67 acbd 4196 07be 0443 8ebd
00000170: 5229 cabc 112b dabc 928f 6abd 4346 f73c
00000180: 4a99 69bd cfaf 09bb f838 523c a6f3 2fbd
00000190: f889 a63c dafe 653d 1b61 9abc 8488 5b3d
000001a0: 559b 3bbd 4235 08bd 41ce 39bd 6ab2 0d3d
000001b0: 8a6e 17bc 8d59 af3c 683d 0ebb 1091 073c
000001c0: 453c c6bc 7d2f aa3c 9a94 96bd 33b5 05be
000001d0: 38bf 293c cd7b 5b3d eb79 7c3c f159 d9bd
000001e0: ad6d 64bc 7f46 10bd f03f c1b9 1c31 a9bb
000001f0: 114f 1f3d eb83 b43d 3e41 303e caca 403d
00000200: 16ca f93b 9dd3 e63c f3a6 52bd acf3 893c
00000210: 8bca 0b3d e3ab 2abd 37fe 2a3c 89e7 39bd
00000220: 696e 81bc f3f5 61bc 33b3 c83d 1ab0 ccbc
00000230: d288 eabd 2422 05be fcc0 a33c ea90 563d
00000240: d279 21bd b33d 4dbd f3f3 03bc 322e b9bb
00000250: fc34 44bc 0790 dfbd e11d b8bd 1893 0ebc
00000260: b4a8 d3ba a6f7 023d a562 32bd 1ac7 aaba
00000270: 6230 453d f0f6 e9bc 4703 b83d 2278 febd
00000280: 42d3 23bc 1a0d de3c d924 a7bc d25e b43b
00000290: f078 6c3d 8280 8539 9b25 1d3d ab04 143c
000002a0: 8547 dd3d 99a7 2d3d 7c8b 48bc 73b9 d5bc
000002b0: 809f a53c 1367 1abb 8047 273c ff4b fa3c
000002c0: 3e30 5b3d fe70 713c 9bc2 073e 7e50 3ebc
000002d0: 925c 433d 5ccf 36bd 06ee 043e ac50 73bd
000002e0: 3ea1 d9bd f6ec 4abd b772 85bd 9ed3 c5bc
000002f0: 531f 253d 9e98 4f3d d9ab 63bd 03cd d23d
00000300: d04e dbbc 5127 173d 727a 833c 5af6 47be
00000310: bb50 8bbd c1a1 0a3e 7e6b 573d 46db 23bd
00000320: b9e1 c9bd 3dcc 353c cf59 93bd 5572 b4bc
00000330: 7a37 f0bd e3c0 eabc 98b3 b23d 7a59 7c3c
00000340: 632a b93c 8f2e dd3c 9c2f 493c 836b 01bc
00000350: 784d 1ebd 7ced dd3c d515 44bd 03d2 1b3d
00000360: 2303 8dbd fde0 cf3d 89ae 703b 96a2 83bd
00000370: 0e8a a5bc 4ba2 90bc 2c52 8bbd 38be 703d
00000380: 6027 9fbd 1555 e3bc 000a d8bc 10d8 8e3c
00000390: 0c4b 413c e8e8 84bc 1c13 46bd 5a19 77bd
000003a0: 9a60 993d 8412 093d 8c89 3a3d 0639 eebd
000003b0: 5c48 e23d d284 25be 520e e0bc b72a ce3c
000003c0: 7d82 30be f59e 92bd d123 7f3d 553d f1bd
000003d0: f787 4abd 6f18 943c 2d92 1ebc 8a2e eebc
000003e0: 3573 6f3d 14a5 8cbd 7865 9cbd e6f2 543c
000003f0: fe3a e7bd f9fd 293d 164e 14bd 4032 363e
0.04015033 -0.08420898 -0.0027711128 -0.095947646 -0.084154636 -0.10847145 -0.09693329 -0.029814864
0.059250794 -0.042571183 -0.007678215 0.06111525 0.054926734 0.016861593 -0.060369622 0.041411154
0.03722504 -0.030576987 0.12545252 0.043277893 0.049654678 0.028550124 0.05548754 -0.030596768
0.021030158 -0.030953715 0.05341553 0.05314251 -0.009363012 0.0017645475 0.01469946 0.010630181
-0.07370054 0.13359006 0.10997055 0.025519585 -0.05542893 0.027472932 -0.0017040456 -0.050447416
-0.007837396 -0.13686328 0.074464306 0.004474628 -0.061362643 0.03792138 0.06446198 -0.09391803
0.041546512 -0.038534373 0.04212906 -0.09100638 -0.016418472 -0.035240274 0.08242452 0.019191464
0.023775492 0.07257028 0.0016788173 -0.06304053 0.093609616 -0.07532811 -0.028774234 0.06061991
-0.112575516 0.040250443 -0.008776781 0.026494183 -0.09768706 0.11334018 -0.0048003052 -0.016338194
0.11233445 0.016251555 0.053965975 0.0042417003 0.013086453 -0.029436566 0.05743922 -0.042126995
-0.042584535 -0.10508695 0.044401456 -0.2054328 -0.06946679 0.02781717 0.066677414 -0.17612912
0.120455645 -0.084181175 -0.13240911 -0.06946376 -0.024677906 -0.026631864 -0.057265826 0.03018487
-0.057030953 -0.002100933 0.012830965 -0.04295697 0.02032946 0.05615125 -0.018845132 0.05359699
-0.045802433 -0.033253916 -0.045362715 0.034593977 -0.009242663 0.021405006 -0.0021704081 0.008274332
-0.02419866 0.020774597 -0.07352562 -0.13057403 0.0103605315 0.053584863 0.015409927 -0.10612858
-0.013942164 -0.03522348 -0.00036859466 -0.005163325 0.038893763 0.08814224 0.17212388 0.047068395
0.0076229675 0.028177077 -0.051428746 0.016839825 0.034128707 -0.04166783 0.010436586 -0.045386825
-0.015799718 -0.013791549 0.097998045 -0.024986316 -0.11451878 -0.13001305 0.019989483 0.052384295
-0.039422818 -0.05010767 -0.0080537675 -0.005651259 -0.011975523 -0.10916143 -0.08990074 -0.008702062
-0.00161483 0.031974457 -0.043551106 -0.0013029308 0.048141845 -0.028560132 0.08985 -0.12425257
-0.009999098 0.027105857 -0.020403313 0.0055044675 0.057732522 0.00025463483 0.03836594 0.009034316
0.10804657 0.04239616 -0.012240287 -0.026089406 0.020217657 -0.0023559972 0.010209918 0.030553816
0.053512804 0.014736412 0.1325783 -0.0116158705 0.047695704 -0.044631347 0.12981424 -0.059403107
-0.10626458 -0.04954239 -0.06516021 -0.024148759 0.040313076 0.050682656 -0.05558381 0.10293009
-0.02677098 0.03690273 0.016049597 -0.1952757 -0.068025075 0.13538267 0.052592747 -0.040004037
-0.09857506 0.0110960575 -0.07194864 -0.022027174 -0.11729331 -0.028656429 0.08725661 0.015402192
0.02260322 0.02699974 0.012279417 -0.007899168 -0.0386481 0.02709078 -0.047872383 0.03804208
-0.06885364 0.10150335 0.0036725125 -0.06427495 -0.020207431 -0.017655512 -0.068027824 0.058775157
-0.07771182 -0.027750531 -0.026371956 0.017437011 0.011797678 -0.01622434 -0.048358068 -0.06032691
0.074891284 0.033464924 0.04554133 -0.1163197 0.11048958 -0.16163948 -0.027350578 0.025166852
-0.17237277 -0.07159225 0.062290017 -0.11779276 -0.049446072 0.018078057 -0.009678406 -0.029074926
0.05845948 -0.06867424 -0.07636541 0.012997365 -0.11290549 0.041501973 -0.03620728 0.17792606

fc_adv2.bias f4 [4]
00000000: 83b2 07bd b653 54bd b3e6 293d 0054 5e3d
-0.033129226 -0.051837645 0.041479778 0.054279327
