per_pp_model.pth (torch_old, 28423 bytes, 6 tensors)

fc1.weight f4 [64, 37]
00000000: 6c79 7d3d 2e62 ea3d 0032 2dbe 5bea 6fbe
00000010: 67b8 19bd 2506 fe3d 0213 96bd c79b d53d
00000020: c694 33bd 406d 043d 8ab5 f3bd 81de ff3b
00000030: 7515 4abe 3540 3abc 3b55 cebd 6ad6 a93c
00000040: e8d3 973d e280 b33d 903e a7bd a001 7bbd
00000050: a918 f43d 77be 423e 4d84 0cbd fab4 74bd
00000060: b54b 783d c187 89bc 1460 273e 3c63 e9bd
00000070: fd35 d0bd 2af2 a1bd e6a7 12bc c8e8 b53d
00000080: 6c28 b0bd 2540 87bd 680e 28be 0f5f f3bd
00000090: b60e debd d5e0 343e 3d9c 5f3d fa99 be3d
000000a0: 6af9 ed3d b132 eebc e76d 253e 40b6 a8be
000000b0: a09b 2bbe 156d c8bd 3bb0 1cbe 0832 bd3d
000000c0: 4737 c4bc 8f6f a33b 6697 1d3e 8564 3b3e
000000d0: 17ed 053e d6a8 913c d97d ad3d a6e5 dcbc
000000e0: 9481 4f3d 19f3 96bd fd1f a2bd c722 72bd
000000f0: 4208 683d 0858 d83d d6e5 023d 428e 403d
00000100: aeae c6b9 e51a 073c ee45 f7bc 933d 5a3d
00000110: 5e80 1f3e 3961 1e3e d728 a7bd b7bf d93b
00000120: ba1c 733d 1d5f ee3d 9e4f c03c addc 8d3e
00000130: b1e9 593d d201 4ebe abd0 0abe 6d93 55be
00000140: c6eb 4c3a 545b 203e a402 f63d c294 5bbe
00000150: 2c32 dc3c dfed 32bc 66d9 ed3a 3404 e9bc
00000160: a672 8d3d b461 38be 7f60 423e 6fe1 c63d
00000170: 911c 14bc e34f 1dbd 5ce4 c0bd dffc e0bc
00000180: 4867 593d fec3 fb3b 0e82 84bc 4d35 55be
00000190: 0f28 813e 90ba 013e fd45 9dbd 92d2 6cbe
000001a0: 9029 05be c2e0 8d3c 2d08 00be 2b89 a9bd
000001b0: 3223 bebb 7f78 08bd cab3 0ebc b2e4 383d
000001c0: 5b36 dbbd 232a 533e d919 cb3c b0e2 f8bd
000001d0: 505b 60be c20d 3fbe 5245 883e ed0e cc3c
000001e0: c7f0 a7bd 1c6a 7bbd 44cb 00bd 296f e03d
000001f0: 2124 73be edbd 01bd 7bec e0bd c157 36bc
00000200: 08ac e4bc 993c 23be 02b6 11bd 3bba b3bc
00000210: 2c29 99bd 65f4 bf3d da8b 993c 9b14 c8bb
00000220: 9971 53bd f7a8 53bd ac05 123e 1a7a 073c
00000230: 002f de3d 6f28 533d c81a 2b3e 1cdf 7e3d
00000240: 973d 86be 6ad2 1bbe 22c9 b43c adef f7bb
00000250: e6a9 25bd 13b3 4cbe a89a 2abe a536 a2bd
00000260: 9c02 a33d f117 6d3e 3ac6 cebd da15 3fbe
00000270: d511 b03d f32e 94be f538 8abd 621f 77bd
00000280: 9462 023d a99f 67bd 2cc9 b9bc 331d fdbd
00000290: 75d6 3bbc 7398 adbd 3aee 983d c052 833e
000002a0: 3fc9 0ebe f993 d0bc be3c 063e eec2 353d
000002b0: 3884 983e c4da ce3d 4a57 02be ac59 913d
000002c0: e81a ba3c d6d9 ea3d 3b27 b93d ebc1 b0bd
000002d0: 0e84 4f3d 6a8a 2b3d 5466 d33e 5bdc f4bc
000002e0: f242 993d d778 893d c5b2 5fbc 3aca 12bd
000002f0: ab6b b1bd 868f 1c3e 20c6 783e 2775 59bd
00000300: ecab 89be b0e9 803c 2e6d 21bf 85b4 fdbc
00000310: 89c2 aebd 032b 783d 89a0 d4bd 105d f23c
00000320: df30 ef39 e300 e63d f397 afbd 2d8e 6ebd
00000330: dcca 46bd d547 253e 5bb6 01bd f61d 203e
00000340: b8b0 7b3d 7518 8c3d 810d 7d3b d23a 6d3b
00000350: 8360 503d 37f8 4b3d b236 5ebc 8811 513d
00000360: 87a3 b0bd 1048 29bd 1de3 223e 73b6 1cbe
00000370: 3ffb 6b3c 7c98 1f3e 3efd 163d 720c a93d
00000380: 8dd1 c3bd 4f01 c0bc 5510 22bd 60b8 40bc
00000390: 29a9 a3bd 84b5 8e3c c476 15bd 1d84 2e3e
000003a0: 7b53 873d deea b83d 1427 1e3e aec2 0abe
000003b0: 6151 fd3d 22dc 5dbe 0383 42bd 840f 963d
000003c0: 642d 0e3e 384a e53d 760a 72bd 078e c23c
000003d0: 6663 c13d 27df 1bbe 5fea 403e 354b 2abe
000003e0: bae1 ab3c f3b2 ce3c 0bf2 dabd 9217 573d
000003f0: 61d1 283e cffe 42bd a4c6 9dbd c1c8 d4bd
0.061883375 0.114445075 -0.16913605 -0.23429243 -0.037529375 0.12403516 -0.07327844 0.10430103
-0.043843053 0.03233075 -0.1189986 0.007808507 -0.19734748 -0.011367847 -0.1007485 0.020732123
0.07413465 0.08764817 -0.0816623 -0.061280847 0.11918766 0.19017969 -0.03430586 -0.059742905
0.060619075 -0.016788365 0.16345245 -0.113958806 -0.101665474 -0.07907517 -0.008951163 0.0888229
-0.0860146 -0.066040315 -0.16411746 -0.11883365 -0.1084265 0.17663892 0.05459236 0.093067124
0.116198376 -0.029076906 0.16155206 -0.32951546 -0.16758585 -0.09786431 -0.15301602 0.09238058
-0.02395214 0.004987664 0.15389785 0.18300064 0.13078724 0.017780703 0.08471269 -0.026964974
0.050660685 -0.07370586 -0.079162575 -0.059115198 0.0566485 0.10563666 0.03195747 0.047010668
-0.0003789565 0.008246158 -0.030184712 0.053281378 0.15576312 0.15466775 -0.081620865 0.0066451686
0.059353568 0.11639235 0.023475464 0.27707425 0.05320138 -0.20117882 -0.13556163 -0.2085702
0.00078171154 0.15659839 0.120122224 -0.21443465 0.026879393 -0.010920971 0.0018146455 -0.028444387
0.06906633 -0.18006021 0.18982123 0.09710967 -0.009040014 -0.038406264 -0.09418556 -0.027464328
0.053077012 0.007683276 -0.016175296 -0.20821114 0.25225875 0.12668824 -0.07679365 -0.23127201
-0.13004136 0.017319087 -0.12503119 -0.08278116 -0.0058025355 -0.03331804 -0.008709857 0.045139976
-0.10703727 0.20621543 0.024792599 -0.12152612 -0.21909833 -0.18657592 0.26615387 0.02490946
-0.082002215 -0.06138049 -0.03144385 0.10958702 -0.23744251 -0.031675268 -0.10982605 -0.011129321
-0.027914062 -0.15941085 -0.035573967 -0.021939388 -0.07478556 0.093727864 0.018743444 -0.006105972
-0.051622007 -0.05167481 0.14259976 0.008268857 0.10848808 0.051552232 0.16709435 0.062224492
-0.26218864 -0.15216985 0.022068564 -0.0075664134 -0.04044523 -0.19990186 -0.16660559 -0.07920579
0.07959482 0.23153664 -0.100964025 -0.1866068 0.08597151 -0.2894207 -0.06749145 -0.060332663
0.031832293 -0.05654875 -0.022678934 -0.12359085 -0.011464705 -0.08476343 0.07467313 0.2564907
-0.13943957 -0.025461184 0.13109109 0.044375353 0.29788375 0.1010032 -0.1272861 0.07097182
0.022717908 0.1146733 0.09040686 -0.08630737 0.050663047 0.04188005 0.41289008 -0.02989023
0.07483472 0.067125015 -0.013653462 -0.03583739 -0.08663114 0.15289125 0.24294329 -0.05309024
-0.26888978 0.01573643 -0.6305722 -0.030969867 -0.085331984 0.060587894 -0.10382182 0.029585391
0.00045622044 0.11230638 -0.08573904 -0.05824106 -0.048533306 0.16140683 -0.03166805 0.15636429
0.06144783 0.06840602 0.0038612785 0.003619839 0.05087329 0.049797263 -0.013562845 0.05104211
-0.0862494 -0.04132849 0.1590695 -0.15303974 0.014403163 0.15585512 0.036862604 0.08254327
-0.09561453 -0.023438124 -0.039566357 -0.011762708 -0.07991249 0.017420538 -0.036490217 0.17042585
0.066077195 0.09029172 0.15444595 -0.13550827 0.123690374 -0.21666005 -0.047488224 0.07327178
0.13884503 0.11195797 -0.059092008 0.023749365 0.09442787 -0.15221845 0.18839405 -0.16630252
0.020981658 0.025231814 -0.10690697 0.052512713 0.16486122 -0.047606286 -0.07703903 -0.10389853

fc1.bias f4 [64]
00000000: 42bd 1d3e beb9 b03c 89ae c1bd 05d8 9cbd
00000010: 6a21 303e 96fa adbb 45ad 6ebd a230 ba3d
00000020: 7240 1e3d 2186 1ebe 1c1a 3f3e e125 0f3e
00000030: b33a 063e 0e12 c33d 1c8e 9bbc 3fe4 37bc
00000040: 474b aa3d 0140 e5bb 80e9 b43d be4d 54be
00000050: a03d adbd 7db3 d83d 9dde 893c a085 96bd
00000060: 9155 f9bd fa8d 173e bd23 97bb cb99 02be
00000070: 4b1b 153e 2382 163e 87f9 afbd d794 1abe
00000080: a8d3 383e 2304 253c d606 a2bd 3606 d93d
00000090: a78b 7c3d 9fa9 fd3c 659b 21bd dc67 7abd
000000a0: a0b8 37bd 5641 faba 8fef 07be 1f1b 503e
000000b0: e88b 053d f643 84bc fb32 683d a3b7 f5bd
000000c0: 692f c0bd e58b 883d 9d37 bcbd 310d b63d
000000d0: cd6b 583c 6798 b9bd 0f92 1abe f9ad 383d
000000e0: ccde 973d a6f5 a5b8 6a1f 0cbe e704 cfbd
000000f0: 127d a13d 93e7 903d 3601 b63d c6b9 9e3d
0.15404227 0.021572944 -0.09457118 -0.0765839 0.17200246 -0.005309413 -0.05827071 0.09091307
0.03863568 -0.15480854 0.18662304 0.13979293 0.1310833 0.09524928 -0.018988661 -0.011223852
0.08315139 -0.0069961553 0.08833599 -0.20732781 -0.0845902 0.1058111 0.016829783 -0.07349706
-0.121745236 0.14800254 -0.0046124146 -0.1275398 0.14561193 0.1469808 -0.085925154 -0.1509584
0.1804949 0.010071787 -0.0791146 0.10596888 0.06165662 0.03096467 -0.039454836 -0.061134204
-0.044853806 -0.0019092958 -0.13274978 0.20322846 0.032604128 -0.016145688 0.056689244 -0.119979165
-0.09384043 0.06667308 -0.09190295 0.08889235 0.013209295 -0.090622716 -0.1509478 0.04508779
0.07415542 -7.913569e-05 -0.13683859 -0.10108357 0.078851834 0.07075419 0.0888695 0.07750277

fc2.weight f4 [64, 64]
00000000: 0770 55bc 9186 953d 9101 fc3d 5d29 313e
00000010: 65d9 9c3d 6bee 01bd 8d13 01be 5d8c dc3b
00000020: 41f9 7a3d 5ad7 17bc a095 1d3d 92ac 87bd
00000030: 8f29 83bd 041a e93d 3553 793d ed3a bbbb
00000040: bd12 0bbd a92f 19bd db89 2cbd d6e6 5c3d
00000050: 3909 58bb 2c00 dc3c 275b f03d ccba 84bd
00000060: be73 bebd 0716 23bc a189 913d 7630 6b3c
00000070: 6c00 223d cc9b 02be f7a6 0e3e 2b01 683d
00000080: 8873 0b3e 607b 173d 2ee1 233d 634f f0bd
00000090: 86ac 30bd 750e e93d f52a 883b 5886 52be
000000a0: a0d2 6fbe ab3c 823b ac3b 953d 68f1 14bd
000000b0: f83d 9d3d 5b8e 28be c3f0 89bd a0cb d93d
000000c0: 1f2f 0cbd b1b6 34bc ab56 cebc a60a bf3c
000000d0: c72a a0bd bec6 613c 0723 8f3d d121 5abc
000000e0: 52fc c3bc bb21 4cbd e61d 11be ee02 cdbc
000000f0: fa7d bd3d 5050 0d3e 9332 dbbd 4d31 923d
00000100: 601d 9d3d b83e f13d cdf2 04be 2236 1c3d
00000110: e3d7 c03d a326 c53d fbb4 cdbd fd4e b43d
00000120: 00e6 90bd 14bb fabd ceb2 25bb 5c1e 0f3e
00000130: 062f cfbd 17db 1d3e ccf9 a5bd dee7 d93d
00000140: 2f58 c33d 1dfc 133d 79e5 5ebd 110c 613c
00000150: d0ed ec3c ca4d 9cbc cac4 c63c 9408 96bd
00000160: dcdf 03bb 77b2 803d bfc8 12be f0da d83c
00000170: fcfa 9d3d 860e b2bb 0470 923d ed4a 43be
00000180: 1bf6 8fbd 3790 e83c 2936 48bc 2405 89bc
00000190: fd63 453d dd0d 493d 9df7 af3d c9fc dcbd
000001a0: 5180 9c39 b91b d63d 860a 213d 31a0 e2bd
000001b0: c3ea 9ebd 9ec4 7abd 482b 05be 69e7 35bd
000001c0: 0885 d7bd 6797 abbd 3827 35bd b7b1 ca3d
000001d0: eda4 d0bd 4410 6e3d bcae dabd 6f8d d23b
000001e0: cb8e a5bd 1368 e73d 6328 0e3e 9d9e bd3d
000001f0: 282e efbd c5ce 923d 3fba a2bd 5171 babd
00000200: 1523 acbd 4bad 8ebd cf02 f73c 3652 c7bd
00000210: a537 0d3d 1a74 193b ae8a b8bd 6f01 bd3b
00000220: 2fdf 953d 11d4 91bd 4842 863c 58b5 483c
00000230: 62c9 693d 6e0e c03d 383e d93d b815 973b
00000240: ecad c9bd ba8b 2d3c b8aa a83d 2102 b3bd
00000250: 332d 0dbe 31e6 e43d 229e e43c c32f b4bc
00000260: dddd 6cbc a385 b13d b0a0 0c3e 2b14 183e
00000270: e68f 96bc ac44 533e 1494 0b3e dfc4 1dbc
00000280: 282c f4bd db87 5dbd f9d3 21be 55bc e63d
00000290: 0e96 e83d b8c5 3a3e 4e4f 1f3e 8d71 113d
000002a0: 57b6 213e e902 0bbd 77b9 a339 b79b 25bd
000002b0: 44a9 b6bc aff0 253c 93a1 c03c 78a8 f2bd
000002c0: c206 403d 8f89 1bbe 4187 8abd eea0 013d
000002d0: f267 46be 9861 a9bd 0dbc 62be a60f 52bd
000002e0: 831a f0bc 89b7 07be ecc3 d13d e982 d93d
000002f0: 98fc 96bb 152c b23d e818 e63d d709 8f3d
00000300: 5eee 5139 e4fc 0fbe 79f1 7a3e 9f38 cabd
00000310: 76e6 adbd 3b24 1a3d 8f47 f03c df80 3ebd
00000320: b876 05be 4910 2b3d b1e1 f53b 8361 e43d
00000330: c766 09bd 7130 213c a9ef 47bb ce5e a9bd
00000340: 5ea0 d2bb 027c 713b a596 2c3d adab cbbd
00000350: 8fdd 323d a05b c33d 6524 823d 1b62 a5bb
00000360: 52a6 083e 79c9 3abd ca0c 47bd b734 c23d
00000370: 575b 043e cf6e 80be 37f4 db3d 5993 9b3c
00000380: d010 1b3c 46dd 8ebd 7b1d d73c 05d2 f93d
00000390: 66ea efbd 6c60 b23a 689a b83d 5c55 1abe
000003a0: 4e55 dabb 103c 133e ee67 643d 8558 3cbd
000003b0: 238f 8b39 41da e93c c9e5 703d a5f6 87ba
000003c0: 6acf f6bc 37f6 863d 3a60 85bd b78a 683c
000003d0: af68 ba3d dc8f 78bd 9e34 e93d 29e9 c93d
000003e0: 0c31 fdbd 5469 ffbd 83fd 69bd 162c 803d
000003f0: 10ba cdbd d20c e7bc 3fd5 18be a321 0c3c
-0.013027198 0.07301057 0.12304986 0.17300935 0.07658652 -0.031721514 -0.12605114 0.0067306
0.061272863 -0.009267652 0.03847277 -0.06624712 -0.06404411 0.11381915 0.060870368 -0.0057138116
-0.033953417 -0.037398968 -0.042123657 0.05393108 -0.0032964482 0.02685555 0.11736136 -0.06480941
-0.0929942 -0.009953982 0.07106329 0.014354816 0.039551184 -0.12754744 0.1393088 0.05664174
0.1361829 0.036982894 0.04000967 -0.11733892 -0.04313328 0.113797106 0.0041555115 -0.2055906
-0.23420191 0.0039745173 0.07286772 -0.036363035 0.07677835 -0.16460554 -0.06735375 0.106345415
-0.034224626 -0.011029885 -0.02518781 0.023320507 -0.07820659 0.013780294 0.06989103 -0.0133137265
-0.023924027 -0.049836855 -0.14171562 -0.025025811 0.09252544 0.13800168 -0.10703006 0.0713831
0.076716185 0.11779541 -0.12983246 0.038137563 0.09416177 0.0962651 -0.10044285 0.08804128
-0.07075119 -0.122427136 -0.0025283578 0.13976425 -0.10116391 0.15415607 -0.081042856 0.10639928
0.09538304 0.036129106 -0.05441806 0.013735787 0.028921992 -0.019080061 0.024263758 -0.07325855
-0.0020122444 0.062840395 -0.14334391 0.026471585 0.07713887 -0.0054338602 0.071502715 -0.1907155
-0.07029363 0.02838908 -0.012219944 -0.016726084 0.04819106 0.049085487 0.0859215 -0.107904024
0.00029850242 0.104545064 0.039316677 -0.1106571 -0.07759621 -0.061222665 -0.13004792 -0.044410143
-0.105234206 -0.08378487 -0.044226855 0.09897178 -0.10187707 0.05812098 -0.10677859 0.0064255516
-0.08083876 0.112991475 0.13882594 0.09258769 -0.116787255 0.071683444 -0.0794568 -0.09103645
-0.08405129 -0.06966647 0.030152706 -0.09732477 0.034476895 0.002341515 -0.09010826 0.005767993
0.073179595 -0.071205266 0.016389027 0.012250267 0.05707682 0.09377752 0.106075704 0.0046107434
-0.09847626 0.010592395 0.08235687 -0.087406404 -0.13786773 0.11176718 0.027907435 -0.02199543
-0.014457193 0.08668067 0.13733172 0.14851443 -0.018379163 0.20631665 0.13630706 -0.009629457
-0.11922485 -0.05408464 -0.15803517 0.1126639 0.11356746 0.18239486 0.15557596 0.03550868
0.15792213 -0.033938322 0.00031227965 -0.040431704 -0.022297509 0.010128184 0.023514545 -0.11848539
0.046881445 -0.15189193 -0.06764079 0.031647615 -0.1937559 -0.08270568 -0.22142048 -0.051284455
-0.029309517 -0.13253607 0.10242447 0.10620672 -0.0046077482 0.08699814 0.11235219 0.06984299
0.00020020592 -0.14061314 0.24506177 -0.09874081 -0.084912226 0.03763221 0.029330997 -0.04650962
-0.13033569 0.041763578 0.007503711 0.111514114 -0.03354528 0.0098382095 -0.0030507839 -0.08270036
-0.0064278087 0.0036847596 0.042135853 -0.09944854 0.043668326 0.095389605 0.06354598 -0.0050470955
0.13344696 -0.045602296 -0.04859618 0.09482711 0.12925468 -0.2508454 0.1073994 0.01899116
0.009464458 -0.06975798 0.026259175 0.12198261 -0.1171463 0.0013609058 0.09013826 -0.15071625
-0.006663001 0.14378381 0.055763178 -0.045982856 0.0002661879 0.028546454 0.05881289 -0.0010373188
-0.0301282 0.065899305 -0.065124944 0.014193228 0.09101998 -0.06068407 0.11386989 0.09858925
-0.123628706 -0.124712616 -0.057126533 0.06258409 -0.10045254 -0.028204355 -0.14925097 0.0085529415

fc2.bias f4 [64]
00000000: f63c 103c 8a2c 47bd c437 8a3d 3569 893d
00000010: cd78 0e3e fb2e 07be c536 9ebd 527a 5e3d
00000020: d77f af3d 3cfc 1e3e 5936 6bbd 9a76 0c3e
00000030: 364d 8b3d 106c 8ebd 8599 72bd 17b3 e93c
00000040: 4f03 8b3c 08b1 14bd 198e 7abd 4e3b d03d
00000050: 3805 0a3e f51d 423e 12a5 8ebd 73be 9bbd
00000060: 9d3f cbbd 50fb c0bd 853a a83d 733d 2bbd
00000070: 78f5 1dbd 22c5 af3d dcac c53d 94f9 87bd
00000080: c1c0 153c 1e9a 933d a0f2 113d ddf4 0dbd
00000090: c3df a1bd 4bf2 07be d8b5 293e af2f 3cbc
000000a0: 3668 d6bc 9837 593e c174 d93d f7bb 22bd
000000b0: 08d8 933d a6dd 6fbd 380b 84bd e4c6 e4bd
000000c0: ba2c 973d eec5 d4bd 1fbd 2abd 7dbe 1a3e
000000d0: 95ff 56bd f682 8abd a80b b83d 66ce 84bd
000000e0: 21de 2abe daf8 f9bd 055a e23c a73e 0bbd
000000f0: d7cf 823d 30cd 0c3e 7f35 fa3d 6f24 98bd
0.008803597 -0.04862646 0.06748918 0.0670952 0.1391327 -0.13201515 -0.0772529 0.054315872
0.085693054 0.15525907 -0.057424877 0.13717118 0.06801836 -0.06954205 -0.05922844 0.02852778
0.016969351 -0.036301643 -0.06117067 0.101675615 0.13478553 0.1895674 -0.069650784 -0.07604685
-0.09924243 -0.09422934 0.08214287 -0.04180665 -0.038564175 0.08582522 0.09652111 -0.066394
0.009140194 0.0720713 0.035631776 -0.034657348 -0.07904007 -0.13276021 0.16573274 -0.011485978
-0.026172739 0.21212614 0.10617972 -0.03973004 0.07218939 -0.05856099 -0.06447452 -0.11170748
0.07381578 -0.103893146 -0.041684266 0.15111728 -0.052489836 -0.0676326 0.08986598 -0.0648468
-0.16686298 -0.12205668 0.027630815 -0.033995297 0.063872986 0.13750148 0.12217235 -0.07428824

fc3.weight f4 [4, 64]
00000000: b7f4 84bd 9a6e 793e 38fa 023e 12a8 37be
00000010: 7673 f73d 0e7d 0bbe 14ed 3f3e 12e8 acbd
00000020: b113 973d 6c02 773c 3d7c dcbd b47d 943e
00000030: 02ea dcbc 2335 453d 3050 1cbd 168d 05bc
00000040: 7d6c d03c 1979 803e 2189 153d 2cfb 023e
00000050: 3193 873d f693 ea3c 4d50 783d 048c a9bd
00000060: f472 37be 836b 87bd d5cb a4bd 3569 fbbd
00000070: 38c1 993d 08a4 1c3c c827 01be 3fcf cc3d
00000080: 9578 013e b14f 6c3e 40c0 983d 7626 37bd
00000090: 6b0a 423e 992c 1cbe 0002 833d 2847 013e
000000a0: cb3d a53e 8e6b 2c3d 58fa 113d ffd8 793d
000000b0: e76f fc3d 7e0e f7bb 301a ef3d 4e07 103e
000000c0: 2644 b2bd 6e8e 2d3e 6e36 1a3d f7ab 123e
000000d0: c2f9 9f3e 6693 c0bd 4520 8d3d 7d43 ff3c
000000e0: 15fa afbd 4e86 00bc 05f6 4d3e 82a0 963d
000000f0: ec71 37be 546d 133e b383 b03d 4e1b 963e
00000100: f54f 2f3e dc69 893d 58a2 273e dbf4 c8bd
00000110: 4472 eb3c ccb9 f6bc 1736 b53d 84ac f5bc
00000120: ccb7 b6bd e7fd 2c3d dec8 a43d 1cb1 2e3e
00000130: 237e 04be a0f1 a63c 60de a5bc 69dd 7c3d
00000140: e9c2 a9bd 449a 933d c1aa 23be 2c4a 683d
00000150: 7d76 de3d a6ec 303e 795c 14bc 7937 183e
00000160: 3bc7 2abd 8cd1 95bd c98f 4f3d 87d4 9e3d
00000170: 5686 0fbe 8d5e cb3d 4605 e03d 5b29 093e
00000180: 97c5 483d 9546 b33b f12e 273e 9417 91bc
00000190: 1275 9e3d 036e 25be 17c5 203e 43dd c93d
000001a0: 7bc3 133e ae4a c33d de8d 4bbd c71a a83d
000001b0: 9f10 c7bc ea66 adbd fa5e 123e 2494 40bd
000001c0: 5e95 013d de6b 923d 40c7 723d 7010 d73c
000001d0: 155b 803e 3e6d a13c ba40 513d d02d f53c
000001e0: 8a9d 94bd cd50 8cbd f466 ce3d 5a74 fcbd
000001f0: c8f5 40bd 26cd 97bd 29a7 d7bd 9de8 6c3e
00000200: 8fba 213e fbfa c13d 4c70 373e 189d e83c
00000210: a03d 4f3e 8768 bbbc 9f23 c33e e12d d93c
00000220: 13db 813b dbf0 5a3d 210b 0dbe 95d3 4f3e
00000230: 1af6 323e 9f24 5abe 665c 98bd 8dd6 103e
00000240: 3f83 813c 93b3 22bd cb67 03be a1a8 6a3a
00000250: 43b9 c83b 47b5 103e fac0 cdbd d7bc 233e
00000260: b1e3 323e ea83 7ebd 1f8a da3c ab40 fcbd
00000270: 4de8 833e 220b f83d 7bd0 af3d cdd1 e0bc
00000280: ee36 eebd 510c 4f3d a8e8 073e 0916 943e
00000290: bf16 813c 06ee 05be 2e98 f73d 3980 fd3c
000002a0: 25c2 083e 2a1f b93d 2f55 ba3d 79b0 c43b
000002b0: d5dd ad3d e5a5 ee3b 15d5 513e fd8e a43e
000002c0: c0ea 073e 9bc9 523c b559 143c ae3a 323e
000002d0: 36f7 453d 067f b23d 5cbd 823d 114c fc3d
000002e0: d904 d1bd 5917 74bd 8de0 163e 036b c73d
000002f0: c0f8 5dbe 2b58 cb3d 180c ffbd 023e a43d
00000300: 05d9 043e 42ef 1d3e de91 4dbb d1da a2be
00000310: b972 6ebd 3c11 913d d73f 273c 4f76 3c3d
00000320: e92d d03d 9cd8 163e 703f d33d 3281 ce3d
00000330: 930c da3d 6454 9b3a aeb1 783d b2b4 0fba
00000340: b39d 8b3e 87fc 603d d81c b73d 74c2 f83d
00000350: 04c9 8c3b f579 3c3e bec3 03bd b006 7e3e
00000360: 555c 80bd 39e7 c7bd 53ae c3bc 7f62 3b3e
00000370: 42cb 003e 8049 9bbd 57fb 0cbe d08e bc3d
00000380: 10f0 e13b 18bd 2f3d 1079 61bd 58f0 b3bb
00000390: 5711 92bd e268 a8bc 644d 293e 370f d63d
000003a0: c64c 183d b426 063e 2bdd 193e 9781 18be
000003b0: b899 7b3e f9fc 12be 23cc c73d 6e87 eebc
000003c0: 3ef5 cf3c 7279 c6bd 596b b23e 4c62 fe3d
000003d0: 3ceb a73d 49c2 44bc 2342 893d 46b9 f43d
000003e0: 7057 9fbd 2944 14be a8fd bcbd fdb3 abbd
000003f0: fc79 0bbe bda8 37bc 223c 32bd b153 423e
-0.06491988 0.24358597 0.12790763 -0.17935207 0.12082569 -0.13621923 0.18742782 -0.084427014
0.07376803 0.015076261 -0.10765884 0.29002154 -0.026967052 0.04814638 -0.03816241 -0.008151313
0.025442356 0.2509239 0.03650773 0.12791127 0.066198714 0.028635006 0.060623456 -0.08278659
-0.17914945 -0.06612303 -0.080466904 -0.12275926 0.07507557 0.0095605925 -0.12612832 0.100004666
0.12643655 0.23077275 0.07458544 -0.044714414 0.18949287 -0.15251388 0.06396866 0.126248
0.32273707 0.04209476 0.035639137 0.06099796 0.12326031 -0.0075395694 0.11674917 0.14065287
-0.087044045 0.16948864 0.037649564 0.14323412 0.31245238 -0.09403114 0.068909205 0.03116011
-0.08592621 -0.007844521 0.2011338 0.07354833 -0.17914551 0.14397174 0.0861887 0.29317707
0.17120345 0.06709644 0.16370523 -0.098123275 0.02874101 -0.030117892 0.088482074 -0.029989488
-0.08921775 0.042234328 0.08046125 0.1705975 -0.12938742 0.020378888 -0.020247638 0.06173459
-0.08289129 0.07207158 -0.15983106 0.05671136 0.108624436 0.17277774 -0.00905525 0.14864911
-0.041693907 -0.073153585 0.050674234 0.0775538 -0.14016089 0.099301435 0.10938506 0.13394682
0.04901656 0.0054710605 0.163265 -0.017711438 0.07737173 -0.16155247 0.15700184 0.098566554
0.14430039 0.095357284 -0.049695842 0.082082324 -0.024299918 -0.08466895 0.14294043 -0.047016278
0.03163659 0.0714948 0.05927205 0.026252955 0.2506949 0.019705411 0.05108712 0.029929072
-0.07256611 -0.06851349 0.100782305 -0.1232688 -0.047109395 -0.07412176 -0.1052993 0.2313561
0.15793823 0.09471699 0.17913932 0.02839522 0.20238352 -0.022876991 0.38113114 0.026511135
0.0039628833 0.053452354 -0.13773777 0.20295556 0.17476693 -0.21303032 -0.074394986 0.14144345
0.015809653 -0.039722037 -0.12832563 0.0008951519 0.0061256005 0.14131652 -0.10046573 0.15990005
0.1746967 -0.06213752 0.02667719 -0.12317022 0.2576317 0.121114984 0.08584686 -0.02744379
-0.11631571 0.050548855 0.13272345 0.2892306 0.015757916 -0.1307908 0.12089573 0.03094493
0.1335531 0.09039147 0.09098279 0.0060024825 0.08489577 0.0072829598 0.2049144 0.3214034
0.13273144 0.012865449 0.009054591 0.17405197 0.04833146 0.08715634 0.06383774 0.12319196
-0.10206003 -0.05959258 0.14734097 0.09737208 -0.21676922 0.09928926 -0.124534786 0.080196396
0.12973411 0.15423301 -0.0031367461 -0.3180757 -0.058214877 0.07083365 0.010208092 0.046011265
0.10165007 0.14731067 0.10314834 0.10083236 0.106469296 0.0011850712 0.060716324 -0.0005481943
0.27268752 0.05492833 0.089410484 0.12146464 0.004296424 0.18405898 -0.032169096 0.24807239
-0.06267611 -0.09760899 -0.023886835 0.18299292 0.12577537 -0.075823784 -0.13767754 0.09206927
0.0068950728 0.042904943 -0.055047095 -0.0054912977 -0.071322136 -0.020557825 0.16533428 0.10452121
0.03718259 0.13100702 0.15025775 -0.14893185 0.24570358 -0.14354314 0.09755733 -0.029117312
0.025385495 -0.096911326 0.34847525 0.124210924 0.08199164 -0.012009212 0.06702068 0.119494006
-0.07780349 -0.14479126 -0.092280686 -0.083839394 -0.13620752 -0.011209664 -0.04351438 0.18977238

fc3.bias f4 [4]
00000000: 2022 d03d 6d72 043e 11e7 63bd 761a e4bc
0.10162759 0.12934275 -0.055640284 -0.027844649
