per_rbp_model.pth (torch_old, 28423 bytes, 6 tensors)

fc1.weight f4 [64, 37]
00000000: 6397 503d c091 f33d 46ef 44be 41b0 06be
00000010: be3b 54bd f6e3 283e e859 fcbc d545 9d3d
00000020: c5e2 10bd 6dd5 1fbd 2b9c 07bd 1180 22bd
00000030: 7f59 07be c48c eabd e39b eabd aea6 293c
00000040: 693e ed3d 4f0f c63c 25f2 30bd aed2 f2bc
00000050: 3946 cd3d b446 0d3e 056f 65bc c083 753d
00000060: 239c 38bc 9030 e6bb 9637 563e 01b9 ffbd
00000070: 54b2 1cbe 478c 70bc 438b 9fbd 5001 f13d
00000080: cf96 94bc 8b46 98bd 97b6 e3bd c01b f5bd
00000090: 51f3 c7bd fba6 353e e4e9 c73d e09c 683d
000000a0: f550 6d3d dbe6 a0bb f9d3 043e ff47 babe
000000b0: 359b 10be f47c d9bd cebf 68be 62e5 b23d
000000c0: b18c 72bd ae00 133d 4567 193e 0e96 1d3e
000000d0: c752 a43d c491 3c3d c8fe ef3d 582e 3bbd
000000e0: 5de9 a23d 3c1c 9dbd 9d2f a3bd caf2 9bbd
000000f0: cff1 413d bac6 f03d 9806 31bd 116e 8f3d
00000100: c62f b03d 6b60 bc3c 9870 203c ad2f 823d
00000110: 3c57 0c3e 7e34 433e 04d8 fbbd ee87 1ebd
00000120: 4a40 d33d 1ff1 f73d b618 0e3e b95b 163e
00000130: ca9f a83d 6abd 10be aecd 9dbc 4739 82be
00000140: 8d24 12be 2a69 623e 73b1 333e 8491 57be
00000150: b6b0 72bc 1f76 663a 5c7c 223c bd05 5dbd
00000160: dea1 c23d 63cc b4bc 7b6c bb3d cabc b43d
00000170: 9bb3 993d 0b76 183d 4564 36be 0159 8ebd
00000180: 2daa d13d 71ff 023d 115a 96bd 0012 debd
00000190: ae03 f23d c1d1 3b3e 2ce0 a3bd b2c4 53bd
000001a0: 1226 74be 2cb5 86bc 47e4 6dbd 0d12 04be
000001b0: 4baa 71bd c280 183d 078f b3bc e4e0 703d
000001c0: 600a 8cbd e402 543e 6723 073e ea6f b2bd
000001d0: 5136 51bd bcb9 f0ba c7c5 eb3d f6a2 323d
000001e0: 735d 5e3e 2ccc 4b3d c792 05be 0018 d03d
000001f0: 6701 e2bd a83b c0bd 727b 15bd b5e5 e8bc
00000200: 89cf 2fbd 0bc2 04be c4d0 afbc d487 9c3d
00000210: 6215 a8bd d1f8 ec3c 10d8 9d3d 3834 04bd
00000220: 30c4 a43c 1df0 43bc 6982 1e3d 1195 203e
00000230: bf97 0b3e 8678 d83d 4a34 3c3e 9af6 143d
00000240: 699b 1fbe e528 d5bd d546 113e 4fcb 063c
00000250: 4a8f 3dbd 9f95 0cbe 8566 26be 2007 b6bd
00000260: 2948 293c 1c90 443e 1f13 d53c 67cf 8abe
00000270: d0b8 ae3d dec9 c8be de65 4bbd d0ca 2cbd
00000280: 9a22 9c3c f2f1 5dbc 11b7 e9bd 847c fcbd
00000290: b1ca 06bc 1f6f eabb aea4 213b 31fd f03d
000002a0: a0ba 09be 4ed6 cc3c e675 1a3e b165 17bd
000002b0: e384 5c3e cdef ce3d 1000 f0bd 73c0 b93d
000002c0: 0351 e63c 223a 2ebd ef1c f13d 15f9 a3bd
000002d0: 6808 143d e6c8 b63c b299 323e 0dd7 153d
000002e0: 5d24 873d aca1 a93d 2ea5 3abd 4cb9 a9bc
000002f0: 1fb0 d2bd 1e01 e23d dd5d 653e ea31 c23a
00000300: ad75 4ebe 004e 13bd 9433 f6be a73c 59bd
00000310: d059 bbbd 2eb2 963d 48a3 c5bd a0c5 fb3b
00000320: 01ac a13c 66f9 b53d b3ff d3bd 73fd 72bd
00000330: 06b1 a1bd 52e7 103e 82a6 f6bc 64b4 113e
00000340: 861f 2b3d cfda 963d 0be3 933c 7049 9ebc
00000350: ee07 0d3d f825 1ebc c0f2 fbbc fe4e 173d
00000360: baf9 dbbd b1b2 8fbd 1ccd 0e3e 62d2 24be
00000370: 856b b4bb 94e0 253e 75ea 11bd 8d54 893c
00000380: 39c1 9fbd 4e5c 513d 2ba5 93bd f489 fcbd
00000390: 16cd 11bd 5069 bcbc 9c43 283c 38bd 2e3e
000003a0: 8d39 44bc 70ad 023e 8eb1 f63d 86b1 cabd
000003b0: 3684 9d3d bb4b 2dbe 58c4 60bd 2e5d 3b3d
000003c0: cb91 6c3d 9094 ec3d da6c 63bd 8604 49bc
000003d0: 9c31 a03d b041 29be e56a ec3d 7bef 30be
000003e0: 6e59 72bc 79fb 07bd 3b70 8fbd fb28 473d
000003f0: 725e 793d d799 efbc 6522 57bd b729 debd
0.050925624 0.11893034 -0.192319 -0.13153173 -0.051814787 0.1649321 -0.03080459 0.07679335
-0.035372514 -0.039021898 -0.033107918 -0.039672915 -0.13217734 -0.1145263 -0.11455514 0.010354681
0.115841694 0.024177222 -0.043199677 -0.029641476 0.100231595 0.13796502 -0.01400352 0.0599401
-0.011267695 -0.007024832 0.20919642 -0.124864586 -0.15302402 -0.014681882 -0.07790234 0.117678285
-0.018138317 -0.0743533 -0.111188106 -0.119681835 -0.09763206 0.17739479 0.09761408 0.056790233
0.057938535 -0.0049103326 0.12971486 -0.36383054 -0.14121707 -0.10619536 -0.22729418 0.087351575
-0.059216205 0.03588932 0.149808 0.15389273 0.08023601 0.04603745 0.117185175 -0.045698494
0.07954667 -0.07671401 -0.07968066 -0.07614668 0.047349747 0.11756654 -0.04321918 0.070034154
0.08602862 0.022995194 0.009792469 0.0635675 0.13705152 0.19062993 -0.12297061 -0.03870385
0.103149965 0.12106537 0.13876614 0.14683427 0.08233602 -0.14134756 -0.019263115 -0.25434324
-0.14271756 0.2211043 0.1754816 -0.21051604 -0.014812639 0.0008791405 0.009917345 -0.05396055
0.0950353 -0.022070115 0.091515504 0.08825071 0.0750496 0.03722195 -0.17811687 -0.0695057
0.102375366 0.03198189 -0.073413976 -0.10843277 0.11817108 0.18341734 -0.08001742 -0.051701255
-0.23842648 -0.016443811 -0.05807903 -0.12897511 -0.059000295 0.037232168 -0.021918787 0.058808222
-0.068379164 0.20704228 0.13197099 -0.08712752 -0.05107719 -0.00183659 0.115123324 0.043612443
0.21715336 0.04975526 -0.13044272 0.10160828 -0.11035424 -0.093863785 -0.03649468 -0.028429845
-0.04292253 -0.12964647 -0.021461852 0.07643095 -0.082072034 0.028927239 0.07707226 -0.032276362
0.02011308 -0.011959103 0.038698588 0.15681864 0.13632105 0.10569863 0.18379322 0.03636799
-0.15586628 -0.10408191 0.14187177 0.0082271835 -0.04627923 -0.13728951 -0.16250046 -0.08888078
0.010332146 0.19195598 0.026010094 -0.2711136 0.08531344 -0.39216512 -0.049657695 -0.042185605
0.019059468 -0.013546454 -0.1141187 -0.12328437 -0.008227036 -0.00715436 0.0024664807 0.117670424
-0.13450098 0.025004532 0.15084037 -0.036962215 0.21535067 0.10104332 -0.11718762 0.0906991
0.028114801 -0.04253591 0.11773097 -0.08006493 0.03614083 0.022312593 0.17441443 0.03658204
0.065987326 0.082827896 -0.045567684 -0.02071824 -0.10287499 0.11035369 0.22399087 0.0014815901
-0.20162077 -0.03596306 -0.48086226 -0.05303636 -0.0914799 0.07358204 -0.09650284 0.007683471
0.019735338 0.088854596 -0.10351505 -0.05932374 -0.07895093 0.14150742 -0.030108694 0.1422897
0.04177811 0.07365953 0.018052598 -0.019322127 0.03443139 -0.009652607 -0.0307554 0.036940567
-0.10740991 -0.070165046 0.1394543 -0.1609588 -0.0055059814 0.16198951 -0.035623986 0.01676395
-0.07800526 0.05111342 -0.07209238 -0.12331 -0.035595976 -0.022999436 0.010270026 0.17064369
-0.011976612 0.12761474 0.120455846 -0.09897141 0.07691233 -0.1692342 -0.054874748 0.04574316
0.057756227 0.115517735 -0.05552373 -0.012269145 0.07821962 -0.16528964 0.11543826 -0.17278855
-0.0147918295 -0.033198807 -0.07003828 0.048623066 0.060881086 -0.029248161 -0.052523036 -0.108478

fc1.bias f4 [64]
00000000: bec5 203e 7959 883c f39b efbd 7462 1cbd
00000010: cb57 3f3e 3d2e b6bb 0347 afbd 977b 0e3e
00000020: 9a2e 993d e572 01be c02f 383e bdc2 e93d
00000030: a4a1 653e a02a dc3d 67cd d3bc fb63 d0bb
00000040: 1880 fa3d e989 08bd dca8 b33d 4612 29be
00000050: 29c0 88bd 920d c13d c8b2 fb3c f176 9cbd
00000060: 2d22 19be 9649 223e f9ed c03b 01a1 21be
00000070: 2e68 253e 9eb9 f23d 9218 9abd 4f8a 0abe
00000080: ffbe 1d3e f6ee 1e3b 1ede 0cbe 2889 a33d
00000090: 8aaf 593d 2bbf 4e3d 6aec 3cbd f65d 0abe
000000a0: 4dff a2bd 5f41 dfbc 524d f0bd e5aa 423e
000000b0: 7276 fc3c 21e7 6ebc 5221 623d 00d9 16be
000000c0: 2853 dcbd d102 9e3d 0763 eabd 7db3 b83d
000000d0: c197 ae39 5ae0 c9bd 1d84 18be d16f fb3c
000000e0: e125 9d3d a6d2 12ba ffa7 02be 7b2f d6bd
000000f0: d486 a33d c62d 3d3d 6188 553d 5174 8d3d
0.15700433 0.016644226 -0.11699667 -0.03817983 0.18685834 -0.0055597113 -0.08558466 0.13914333
0.07479592 -0.12641485 0.17986965 0.114140965 0.22424942 0.107503176 -0.02585478 -0.006359575
0.12231463 -0.033334646 0.08772442 -0.16510877 -0.06677277 0.094264165 0.030724898 -0.07639874
-0.14954443 0.15848383 0.0058877436 -0.15784074 0.16153023 0.1185181 -0.07524218 -0.13529323
0.1540489 0.0024251319 -0.13756606 0.07985145 0.053145923 0.05047528 -0.0461239 -0.13512406
-0.07958851 -0.027252851 -0.11733498 0.19010504 0.030818198 -0.014581473 0.055207558 -0.14731216
-0.10758048 0.07715381 -0.11444669 0.0901861 0.00033300932 -0.09857245 -0.14894147 0.030692967
0.076732405 -0.0005600847 -0.12759398 -0.10458275 0.07984701 0.04618623 0.052132014 0.06906951

fc2.weight f4 [64, 64]
00000000: b823 d43b 4277 853d ee5f e03d 8ad6 e53d
00000010: a402 663d e8f6 22bd e9a7 6cbd 6b55 f8bc
00000020: b134 773d 124a d83d e1f6 f33c c345 d7bd
00000030: 149c 28bd 9d27 1a3e fc1f 56bd bab5 183b
00000040: 0583 2fbd 36b9 a9bc f6b6 963d 2ae0 1f3d
00000050: 1f2c 3bbd 4ca8 16bd bcf8 df3d 6383 0bbc
00000060: 8ea3 b7bd 5ca6 50bc 4f7e 223e 2496 8d3c
00000070: b09b ed3c ed10 393d 7efd 003e dc9d d5bd
00000080: c2c0 ef3d b829 c73c 86b8 673d 87e0 d4bc
00000090: be33 17bd ce56 f13d 64dd 403e 931f 8bbd
000000a0: 0b03 cfbd f95a 67bc e86e c93d cb90 95bc
000000b0: f02d 153e 314c 8bbd a2db b6bd 5158 a93d
000000c0: 02a7 3bbd 15ae 5bbd af47 aabc 8ef8 cfbc
000000d0: 7548 d4bd db41 9dbd 59d4 4a3d 34cb 1eba
000000e0: 26f5 2abd 3469 973c b13e d5bd 77c1 4c3d
000000f0: 37c5 8e3d 52ab 0a3e e08f 89bd 9385 3fbc
00000100: d786 e53d c9ed fb3d 3eef a0bd 33a1 0e3d
00000110: aa9e ad3d f800 c23d 6af0 82bd 321d e33d
00000120: 9b66 41bd 80de d1bd 498c 453c 7be8 143e
00000130: bcf3 06be 581e fc3d fefd aebd 6df5 883d
00000140: 2654 df3d 1f12 023d 5dfe 49bd 64a2 70bd
00000150: 1831 ad3c 723b e9bc a35e c33d 4496 26bd
00000160: bd8d 8a3b 0fd6 a83d a721 1abe e811 52be
00000170: 0da1 b53d 9a59 41bd 66f5 303d 42f0 b1bd
00000180: 9819 3ebd e1a9 07bc c865 5f3d 9ad0 c8bd
00000190: 5229 6d3d d915 bd3d 65b6 083e a2a9 ddbd
000001a0: 63a9 173d 8422 b23d 4b35 59bd 78f0 bcbd
000001b0: 5b13 18bd 7c4c 47bd a0b4 ecbd f3d2 87bd
000001c0: fcde e1bd 2d23 163d d22c d2bc d4f0 c93d
000001d0: 99d0 a4bd 46c7 943d e1f4 8abd 0c0c b43c
000001e0: 850c 86bd b320 36bd 20fa 123e 8e76 d93d
000001f0: e44c e9bd ee8c 4f3d 2dc3 97bd 49d0 a13c
00000200: a1f7 9abd bfe5 80bd 30a3 163d 1d01 87bb
00000210: 9a15 3d3d cbaa 8c3d e574 9ebd f252 593c
00000220: 3619 d23d b457 62bd dcc8 263d d0dc 163d
00000230: 1c36 d83d 21e4 293e a9cf 5dbc e8bb 533c
00000240: 2bd2 9fbd b487 9a3d efb7 cb3d 3ace 53bd
00000250: 059a e1bd d8ae d63d 64ee 6b3d 1958 0e3d
00000260: a3a8 9139 c537 e63d 08c8 dd3d 8a69 55bd
00000270: e0fb 443c dffe 2b3e e4a5 833d a8dd 9ebb
00000280: 3326 cbbd dafd 3fbd 426b 0dbe b6c5 bb3d
00000290: 1aef 1a3e cd2c fe3d 6f87 703d 6fa1 683d
000002a0: b320 383e 001d 053a 1d76 babd 7adc c6bd
000002b0: f3db c53c 08fe c83c 490b 9e3c c3d6 a1bd
000002c0: e2ba b4bb ba0d b7bd 3b0b c4bd 3c02 673d
000002d0: d2fe eebd 83c3 7e3d 8971 15be 8548 b8bd
000002e0: 67ad 453b d1bf 11be bb91 133e d955 e43d
000002f0: 2eff 06bd d33c f93d 8ae6 023c 0797 a03d
00000300: 33bf b03c af68 09be 2972 273e 5af8 20be
00000310: de23 91bd edda 973c d5ac ebbc 1b64 84bd
00000320: c65a fdbd c162 f83d 133c 843b e515 d73d
00000330: c6fc 97bd 38db af3d a4b1 8c3c 0f4a 98bd
00000340: 2b90 2e3b 32ae 23bb 1365 573c ae02 fabb
00000350: 2b6d 1d3d 7433 f23d 94c5 0f3d 5b82 ef3c
00000360: 98e3 d43d 6519 62bd 6a18 703d 0a4f 1a3e
00000370: f8b2 ca3d f537 11be 3cac 1b3d f035 723c
00000380: 17fa 2cbc 49af a8bd 21ae a73d 5091 f13d
00000390: f18c bcbd 2dc9 b13c 1241 0d3e 8d25 1abd
000003a0: 52bb bf3b 2147 ea3d 9d7c b03c a686 5bbd
000003b0: 934b c2bc e3c3 043d 4f35 373d 4da1 06bc
000003c0: dd60 803b 116c ab3a 0142 dbbd 0240 593c
000003d0: 3f46 713d a1a6 943c d8d7 9e3d 3691 d23d
000003e0: 0f54 b5bd 9dac 76bd b60a 3dbd c21f 8e3d
000003f0: c8ef d0bd 255c 1cbd a6b5 ecbd 0011 973d
0.0064739846 0.06516887 0.10955797 0.11222561 0.056154862 -0.03978625 -0.05777732 -0.030314168
0.060352985 0.10561003 0.029780807 -0.10511353 -0.041164473 0.15054174 -0.052276596 0.0023301677
-0.04284956 -0.020718198 0.07359116 0.03903214 -0.045696374 -0.036781594 0.10936114 -0.008515212
-0.089667425 -0.012734976 0.15868495 0.017283507 0.029004902 0.045182157 0.125967 -0.104305
0.117066875 0.024311885 0.05657246 -0.02598597 -0.03691458 0.11784135 0.18834454 -0.06793132
-0.10108002 -0.014120811 0.09835607 -0.01825752 0.14568305 -0.06801642 -0.089286104 0.08268798
-0.045813568 -0.053632814 -0.020786135 -0.025387075 -0.103653826 -0.076785766 0.049518917 -0.00060575013
-0.041737698 0.018482782 -0.10412348 0.04998919 0.069712095 0.13541916 -0.06716895 -0.011689561
0.11207359 0.12301213 -0.07858132 0.0348217 0.084775284 0.09472841 -0.063935116 0.11089553
-0.047216993 -0.10247517 0.012057372 0.1454181 -0.13178915 0.12310475 -0.08544539 0.06687436
0.10904722 0.031755563 -0.049314845 -0.058748618 0.021141574 -0.028470729 0.09539535 -0.04067065
0.0042283223 0.082439534 -0.150519 -0.20514643 0.088686086 -0.04720459 0.04320278 -0.08688404
-0.046411127 -0.008280248 0.054540426 -0.098054126 0.057900734 0.09232683 0.13350828 -0.108233705
0.037026774 0.086979896 -0.05302934 -0.09225553 -0.037127834 -0.048656926 -0.11557889 -0.06632032
-0.11028859 0.03665464 -0.025656138 0.098603874 -0.08047599 0.07264571 -0.06784988 0.0219784
-0.06545357 -0.04446478 0.14353228 0.10618316 -0.11391619 0.05067151 -0.07410274 0.019752638
-0.07566763 -0.062938206 0.03677672 -0.0041200058 0.04616318 0.06868514 -0.077371396 0.013264405
0.10258715 -0.05525942 0.0407189 0.036831677 0.105571955 0.1659093 -0.01353828 0.012923218
-0.07803758 0.075454146 0.09947192 -0.051710345 -0.11015705 0.104825675 0.057600394 0.034751985
0.000277822 0.11241106 0.108291686 -0.052102603 0.012022942 0.16796444 0.064281255 -0.004848201
-0.09919395 -0.04687295 -0.13810447 0.0916857 0.15130273 0.12410889 0.05872291 0.05679458
0.17981224 0.00050778687 -0.091045596 -0.09710021 0.024152732 0.024535194 0.01929249 -0.07902291
-0.005515442 -0.08938165 -0.095724545 0.056398615 -0.11669697 0.062198173 -0.14594091 -0.08998207
0.003016317 -0.14233328 0.1441106 0.11149187 -0.032958202 0.121698044 0.007989535 0.07841306
0.021575546 -0.1341884 0.16352142 -0.15719739 -0.07086919 0.01853701 -0.028768936 -0.06464406
-0.12370829 0.12128211 0.0040354817 0.10502223 -0.074212596 0.085867345 0.01717455 -0.074360006
0.0026636224 -0.0024975655 0.013146657 -0.007629714 0.03843419 0.1182622 0.035100535 0.029236963
0.103949726 -0.0552 0.058617033 0.15069214 0.09897417 -0.14181502 0.038006052 0.0147833675
-0.010557673 -0.08236558 0.08187509 0.11795294 -0.0920657 0.021702373 0.13794354 -0.037633467
0.0058511877 0.11439348 0.021543795 -0.053595208 -0.023717677 0.032413375 0.044728573 -0.008217168
0.003917797 0.0013078471 -0.107059486 0.01325989 0.058904883 0.018145861 0.07756013 0.10281603
-0.088539235 -0.06022321 -0.046152793 0.06939651 -0.10201985 -0.038173813 -0.11558084 0.07376289

fc2.bias f4 [64]
00000000: 5e04 8c3c 8bd4 28bd c829 c33d be9a 833d
00000010: 3554 003e 00ec 0abe 2679 cbbd ab15 1f3d
00000020: 4832 aa3d 7b63 303e dc1c 4ebd 76cf 1f3e
00000030: c1e8 7f3d 7bc5 22bd ded2 4abd 4bc0 193d
00000040: b773 6abb dfe4 f8bc 97c2 85bd c9d8 9e3d
00000050: 29c5 fc3d 6a33 4b3e 60ce 56bd 9f78 aebd
00000060: 7ce2 c5bd ae75 a4bd 1ab8 aa3d 7253 4ebd
00000070: abcb adbc 731e bf3d b881 a43d 8f28 a7bd
00000080: 890f 08bc 3958 7f3d 965a ed3c 989e 87bd
00000090: 7af2 afbd 9a05 e7bd f399 f43d a44b febc
000000a0: de49 91bd b51a 683e 4efa c03d 6af1 aebc
000000b0: 284c ab3d 097f 5dbd 517d 84bd 78e7 fbbd
000000c0: 3c2a 723d b61a d6bd 2c52 a7bd 9cfc 273e
000000d0: baba 3dbd 1ba0 81bd 3a8f b53d e0df d0bd
000000e0: 115d 26be 8fe0 fabd fc96 d93c 3a32 a7bc
000000f0: 4af3 423d 4ad0 fe3d 0aff e03d f0b0 2cbd
0.017091926 -0.04121832 0.095294535 0.06425999 0.12532122 -0.1356659 -0.099352166 0.038839024
0.08310372 0.17225449 -0.05032049 0.15606484 0.06247783 -0.039739113 -0.049517505 0.0375369
-0.0035774538 -0.030382572 -0.06531256 0.07756192 0.12342293 0.19843832 -0.05244291 -0.085191004
-0.09662339 -0.08030258 0.08335896 -0.05037255 -0.02121528 0.093319796 0.080325544 -0.08162033
-0.008304485 0.062339995 0.028973859 -0.06622046 -0.085911706 -0.11280365 0.11943426 -0.031041928
-0.07094167 0.22666438 0.09422742 -0.02135535 0.08364135 -0.05407623 -0.06469215 -0.123000085
0.05912231 -0.104543135 -0.0816997 0.16404957 -0.046320654 -0.06329366 0.08865209 -0.10198951
-0.1624644 -0.122498624 0.026561253 -0.020409692 0.0475953 0.12442072 0.10986145 -0.04216093

fc3.weight f4 [4, 64]
00000000: 1142 083d 0fdf 4f3e 03f1 253e c8db 4abe
00000010: b852 0d3e 61e2 dabd ed48 eb3d 6731 a5bd
00000020: 1313 a03d ac4e ae3c f804 f2bd 7961 403e
00000030: c432 eebc 7288 adbc e6ae c5ba 43e4 babd
00000040: c7a2 babc 54b8 0b3e 2f4e b73b da6c 023e
00000050: 1abb 813d 68a4 cc3c 277a 813d 727d c2bd
00000060: e144 13be 1442 52be 83e1 97bd de0b d9bd
00000070: 3190 763d cf18 8bb8 ae12 eabd 4c14 0b3e
00000080: a88e 0f3e 0e36 5e3e ccce b43d a95e 0fbe
00000090: c529 413e cb67 1dbd 930c 943d 4ffa 203e
000000a0: 9b91 7a3e 0d28 413d 122d 1d3c 828c 973d
000000b0: 1551 933d 3cc6 443b 2cab 303e 4af7 8b3d
000000c0: 1d99 b8bd afcc 733e 1f98 aa39 6971 c63d
000000d0: 600f 663e 517f 9fbd fae9 993d ab32 7d3b
000000e0: 096a b5bd 062e 88bc 728c 683e 6a34 9e3d
000000f0: 0fd1 cbbd 59a6 133e cdc2 7f3d 3e66 0e3e
00000100: 045c 0c3e bed7 d43d f2c0 163e 2e41 95bd
00000110: 5349 e33d 4405 813d 5335 713c 09f5 e53b
00000120: b7b9 96bd 2ee2 663d 2914 a63d 6bff 1e3e
00000130: 09c4 babd a1ae cc3c e2f4 4abd d94b 943d
00000140: bc87 e3bd f06b 0c3d 43cf a3bd 66c9 953d
00000150: 7ed9 bd3d cb84 eb3d c718 aaba fe66 033e
00000160: 8658 09bd fe94 dfbd 35b7 7d3d f942 efbc
00000170: 40ca 8ebd d7fe f43d b8da e43d 8118 b73d
00000180: acba 823d c265 253d 0465 fb3d c328 67bd
00000190: 8bb0 8f3d b81c 6abd d7c9 0b3e bcfa de3c
000001a0: bfda ac3d 2ed6 d73d c26c 9cbd 8530 723d
000001b0: 4491 fbbc 0d4a 8fbd 6150 db3d 2d05 d5bd
000001c0: f010 873c 8962 ea3d 81f1 6ebd f6fd de3b
000001d0: e331 833e eb4b db3c 1b46 8b3d d7c3 af3c
000001e0: a77d f2bd 25c9 36bd 821a b63d f907 6fbd
000001f0: e953 49bd ac04 82bc b2a5 71bd 7300 b33d
00000200: 9999 8e3d 9fda a73d 8fca 2b3e bcf6 2fbd
00000210: 75aa ec3d e69d 463c 4893 063e 64f8 bf3c
00000220: 0931 803c 4788 7d3d 087d c6bd 251a 073e
00000230: cefe 323e cd1a fcbd 71a0 14be fd8f 033e
00000240: 46a3 dc3c 4417 5fbd 6701 babd 03cd acbc
00000250: e9d3 ed3a 48dd 203e 1dec 87bd 29f8 d1bc
00000260: 5fd8 ad3d 830a debd ec8a 24bb 946f 37bd
00000270: 10e6 0c3e 58da ef3d 9381 293d 3628 65bd
00000280: 3af9 06bd 4820 26bc 187c 0c3e 5a6b 113e
00000290: 8f1d 68bc a029 1dbe 6cf8 fa3d 2caf f93c
000002a0: 33ad 2d3d 2e03 c03d 49f9 f23d 2d34 9e3c
000002b0: e050 003d 541f ecbb fef3 e13d 34ea 8c3d
000002c0: b2ad bd3d 6bec 0f3d af64 b3bc 03e4 2c3e
000002d0: 64d7 ab3c d680 023d e3e9 363d 319a 533d
000002e0: 0dc6 88bd 9540 08bd e85e bb3b 0279 c03c
000002f0: a1e1 23be 6f90 a93d 20fc eabd cca4 d83c
00000300: 9ca6 b33d 101a c53d 8ea8 8d3d b5ea f8bd
00000310: 4eb6 72bd 3036 6d3c 0ad4 50bd 179f 383d
00000320: cfe5 b03d f371 1a3e 6294 c73d 12fa 5c3c
00000330: f5e8 fa3d b876 543c bad6 683d 73a9 e13c
00000340: e9fd fe3d 3e2c b03a a7b2 d43d c126 973d
00000350: 9024 773c db4b ec3d a405 ccbc 31a0 4c3d
00000360: 2936 a13c c5db 86bd 36bc 31bd 4501 983d
00000370: 70ae 053e 1f2a dabc 8485 a3bd 2d3c b13d
00000380: f66f 1f3d 73c6 cd3d 536c 91bd 3308 3cbd
00000390: 8382 30bd 3800 013d 5978 2f3e 967e a93d
000003a0: 910b 36bd 4af3 073e ef4b 103e 99fd e4bd
000003b0: 9270 ef3d 8b89 0bbe e499 dd3d d6da 1cbc
000003c0: 6f24 353b aef0 c3bb 9750 293e 3692 283d
000003d0: 31d5 403c a476 7e3c 30e9 ae3d 4c22 cb3d
000003e0: 69c5 71bd 6633 fdbd 5ae9 3dbc 648f babd
000003f0: 97d5 bbbd 1390 e538 42b9 cebc fba4 1c3d
0.03326613 0.20299934 0.1620522 -0.19810402 0.13801086 -0.106877096 0.11488519 -0.080660634
0.07816138 0.021277748 -0.11817354 0.18787183 -0.029076941 -0.021183226 -0.0015082031 -0.09125569
-0.022782696 0.13644534 0.005594037 0.12736836 0.06334515 0.024980739 0.06322127 -0.09496583
-0.14381744 -0.2053302 -0.0741606 -0.105979666 0.060196105 -6.6326575e-05 -0.11429344 0.13581961
0.14019263 0.21700308 0.08828506 -0.14000954 0.1886359 -0.038429063 0.07228961 0.15720485
0.24469607 0.047157336 0.009593265 0.073998466 0.071931995 0.0030025383 0.17252797 0.06834276
-0.09013579 0.2380855 0.00032538266 0.096896 0.22466803 -0.077879556 0.075153306 0.0038634937
-0.08858115 -0.016623508 0.22709826 0.07724841 -0.09951984 0.14418925 0.062441636 0.1390619
0.13706976 0.10392712 0.1472204 -0.07287823 0.1109797 0.062998325 0.014722186 0.007017736
-0.07359641 0.056368046 0.08109314 0.15527122 -0.09119422 0.024985613 -0.049549945 0.07241029
-0.11109874 0.034282625 -0.079985164 0.07313804 0.09269999 0.114999376 -0.0012977355 0.12832257
-0.03353169 -0.1091709 0.061942298 -0.02920674 -0.0697217 0.11962669 0.1117453 0.089402206
0.06383261 0.040380247 0.122751266 -0.056435358 0.07016095 -0.057156295 0.13651215 0.027219169
0.0844016 0.105388984 -0.076379314 0.059128303 -0.030708916 -0.06996546 0.107086904 -0.10401378
0.016487569 0.11444575 -0.058335785 0.006805177 0.25623998 0.026769599 0.06800481 0.021455688
-0.118403725 -0.04462542 0.08891775 -0.058357213 -0.04915229 -0.015871368 -0.05899591 0.0874032
0.0696289 0.081959955 0.16776489 -0.042959914 0.115559496 0.012122607 0.13142121 0.023433872
0.015648382 0.061897542 -0.096918166 0.13193567 0.17480013 -0.12309799 -0.14514329 0.12847896
0.026933324 -0.054465547 -0.09082299 -0.021093851 0.0018144819 0.15709412 -0.06636832 -0.025631027
0.08488535 -0.10841849 -0.0025107218 -0.044784144 0.13759637 0.11711568 0.041383337 -0.05594655
-0.032952525 -0.010139532 0.13719213 0.14201108 -0.014167204 -0.1534791 0.12254414 0.030479036
0.042401504 0.093756065 0.118639536 0.019311989 0.03132713 -0.007205883 0.11032866 0.06880608
0.092616454 0.035137575 -0.021898596 0.16883855 0.02097673 0.03186115 0.044656646 0.05166072
-0.066784 -0.033264715 0.005718101 0.023495201 -0.1600404 0.08279502 -0.1147387 0.026445769
0.087720126 0.09624112 0.06916915 -0.12154142 -0.05925589 0.014478251 -0.050983466 0.045073595
0.086375825 0.1508253 0.09745099 0.013487356 0.12251464 0.012967758 0.056845404 0.02754662
0.12450773 0.001344092 0.10385638 0.073804386 0.015084401 0.11537906 -0.024905033 0.049957458
0.019679146 -0.065848865 -0.043392383 0.07422117 0.13054824 -0.026631413 -0.079844505 0.08654056
0.038925134 0.10047617 -0.07100739 -0.045906257 -0.043093216 0.03149435 0.17135753 0.082760975
-0.044444624 0.13276401 0.14091466 -0.111811824 0.11691393 -0.13626687 0.10820368 -0.009573659
0.0027640124 -0.005979619 0.16534649 0.041155063 0.011769579 0.015531216 0.08540571 0.09918651
-0.059026156 -0.12363319 -0.01159128 -0.09109381 -0.091715984 0.00010946407 -0.025234822 0.038243275

fc3.bias f4 [4]
00000000: b5b2 be3d 709f 0b3e 6aa3 3bbd 5ace 92bc
0.093114294 0.1363504 -0.04581014 -0.017920662
